node {
  name: "rgb_in"
  op: "Placeholder"
  attr {
    key: "dtype"
    value {
      type: DT_FLOAT
    }
  }
  attr {
    key: "shape"
    value {
      shape {
        dim {
          size: -1
        }
        dim {
          size: 352
        }
        dim {
          size: 1216
        }
        dim {
          size: 3
        }
      }
    }
  }
}
node {
  name: "depth_in"
  op: "Placeholder"
  attr {
    key: "dtype"
    value {
      type: DT_FLOAT
    }
  }
  attr {
    key: "shape"
    value {
      shape {
        dim {
          size: -1
        }
        dim {
          size: 352
        }
        dim {
          size: 1216
        }
        dim {
          size: 1
        }
      }
    }
  }
}
node {
  name: "decalib_in"
  op: "Placeholder"
  attr {
    key: "dtype"
    value {
      type: DT_FLOAT
    }
  }
  attr {
    key: "shape"
    value {
      shape {
        dim {
          size: -1
        }
        dim {
          size: 16
        }
      }
    }
  }
}
node {
  name: "regnet/feature_extraction/rgb_feature_extraction/rfe-n1/rfe-n1-conv1/weights/Initializer/random_uniform/shape"
  op: "Const"
  attr {
    key: "_class"
    value {
      list {
        s: "loc:@regnet/feature_extraction/rgb_feature_extraction/rfe-n1/rfe-n1-conv1/weights"
      }
    }
  }
  attr {
    key: "dtype"
    value {
      type: DT_INT32
    }
  }
  attr {
    key: "value"
    value {
      tensor {
        dtype: DT_INT32
        tensor_shape {
          dim {
            size: 4
          }
        }
        tensor_content: "\013\000\000\000\013\000\000\000\003\000\000\000`\000\000\000"
      }
    }
  }
}
node {
  name: "regnet/feature_extraction/rgb_feature_extraction/rfe-n1/rfe-n1-conv1/weights/Initializer/random_uniform/min"
  op: "Const"
  attr {
    key: "_class"
    value {
      list {
        s: "loc:@regnet/feature_extraction/rgb_feature_extraction/rfe-n1/rfe-n1-conv1/weights"
      }
    }
  }
  attr {
    key: "dtype"
    value {
      type: DT_FLOAT
    }
  }
  attr {
    key: "value"
    value {
      tensor {
        dtype: DT_FLOAT
        tensor_shape {
        }
        float_val: -0.022380271926522255
      }
    }
  }
}
node {
  name: "regnet/feature_extraction/rgb_feature_extraction/rfe-n1/rfe-n1-conv1/weights/Initializer/random_uniform/max"
  op: "Const"
  attr {
    key: "_class"
    value {
      list {
        s: "loc:@regnet/feature_extraction/rgb_feature_extraction/rfe-n1/rfe-n1-conv1/weights"
      }
    }
  }
  attr {
    key: "dtype"
    value {
      type: DT_FLOAT
    }
  }
  attr {
    key: "value"
    value {
      tensor {
        dtype: DT_FLOAT
        tensor_shape {
        }
        float_val: 0.022380271926522255
      }
    }
  }
}
node {
  name: "regnet/feature_extraction/rgb_feature_extraction/rfe-n1/rfe-n1-conv1/weights/Initializer/random_uniform/RandomUniform"
  op: "RandomUniform"
  input: "regnet/feature_extraction/rgb_feature_extraction/rfe-n1/rfe-n1-conv1/weights/Initializer/random_uniform/shape"
  attr {
    key: "T"
    value {
      type: DT_INT32
    }
  }
  attr {
    key: "_class"
    value {
      list {
        s: "loc:@regnet/feature_extraction/rgb_feature_extraction/rfe-n1/rfe-n1-conv1/weights"
      }
    }
  }
  attr {
    key: "dtype"
    value {
      type: DT_FLOAT
    }
  }
  attr {
    key: "seed"
    value {
      i: 0
    }
  }
  attr {
    key: "seed2"
    value {
      i: 0
    }
  }
}
node {
  name: "regnet/feature_extraction/rgb_feature_extraction/rfe-n1/rfe-n1-conv1/weights/Initializer/random_uniform/sub"
  op: "Sub"
  input: "regnet/feature_extraction/rgb_feature_extraction/rfe-n1/rfe-n1-conv1/weights/Initializer/random_uniform/max"
  input: "regnet/feature_extraction/rgb_feature_extraction/rfe-n1/rfe-n1-conv1/weights/Initializer/random_uniform/min"
  attr {
    key: "T"
    value {
      type: DT_FLOAT
    }
  }
  attr {
    key: "_class"
    value {
      list {
        s: "loc:@regnet/feature_extraction/rgb_feature_extraction/rfe-n1/rfe-n1-conv1/weights"
      }
    }
  }
}
node {
  name: "regnet/feature_extraction/rgb_feature_extraction/rfe-n1/rfe-n1-conv1/weights/Initializer/random_uniform/mul"
  op: "Mul"
  input: "regnet/feature_extraction/rgb_feature_extraction/rfe-n1/rfe-n1-conv1/weights/Initializer/random_uniform/RandomUniform"
  input: "regnet/feature_extraction/rgb_feature_extraction/rfe-n1/rfe-n1-conv1/weights/Initializer/random_uniform/sub"
  attr {
    key: "T"
    value {
      type: DT_FLOAT
    }
  }
  attr {
    key: "_class"
    value {
      list {
        s: "loc:@regnet/feature_extraction/rgb_feature_extraction/rfe-n1/rfe-n1-conv1/weights"
      }
    }
  }
}
node {
  name: "regnet/feature_extraction/rgb_feature_extraction/rfe-n1/rfe-n1-conv1/weights/Initializer/random_uniform"
  op: "Add"
  input: "regnet/feature_extraction/rgb_feature_extraction/rfe-n1/rfe-n1-conv1/weights/Initializer/random_uniform/mul"
  input: "regnet/feature_extraction/rgb_feature_extraction/rfe-n1/rfe-n1-conv1/weights/Initializer/random_uniform/min"
  attr {
    key: "T"
    value {
      type: DT_FLOAT
    }
  }
  attr {
    key: "_class"
    value {
      list {
        s: "loc:@regnet/feature_extraction/rgb_feature_extraction/rfe-n1/rfe-n1-conv1/weights"
      }
    }
  }
}
node {
  name: "regnet/feature_extraction/rgb_feature_extraction/rfe-n1/rfe-n1-conv1/weights"
  op: "VariableV2"
  attr {
    key: "_class"
    value {
      list {
        s: "loc:@regnet/feature_extraction/rgb_feature_extraction/rfe-n1/rfe-n1-conv1/weights"
      }
    }
  }
  attr {
    key: "container"
    value {
      s: ""
    }
  }
  attr {
    key: "dtype"
    value {
      type: DT_FLOAT
    }
  }
  attr {
    key: "shape"
    value {
      shape {
        dim {
          size: 11
        }
        dim {
          size: 11
        }
        dim {
          size: 3
        }
        dim {
          size: 96
        }
      }
    }
  }
  attr {
    key: "shared_name"
    value {
      s: ""
    }
  }
}
node {
  name: "regnet/feature_extraction/rgb_feature_extraction/rfe-n1/rfe-n1-conv1/weights/Assign"
  op: "Assign"
  input: "regnet/feature_extraction/rgb_feature_extraction/rfe-n1/rfe-n1-conv1/weights"
  input: "regnet/feature_extraction/rgb_feature_extraction/rfe-n1/rfe-n1-conv1/weights/Initializer/random_uniform"
  attr {
    key: "T"
    value {
      type: DT_FLOAT
    }
  }
  attr {
    key: "_class"
    value {
      list {
        s: "loc:@regnet/feature_extraction/rgb_feature_extraction/rfe-n1/rfe-n1-conv1/weights"
      }
    }
  }
  attr {
    key: "use_locking"
    value {
      b: true
    }
  }
  attr {
    key: "validate_shape"
    value {
      b: true
    }
  }
}
node {
  name: "regnet/feature_extraction/rgb_feature_extraction/rfe-n1/rfe-n1-conv1/weights/read"
  op: "Identity"
  input: "regnet/feature_extraction/rgb_feature_extraction/rfe-n1/rfe-n1-conv1/weights"
  attr {
    key: "T"
    value {
      type: DT_FLOAT
    }
  }
  attr {
    key: "_class"
    value {
      list {
        s: "loc:@regnet/feature_extraction/rgb_feature_extraction/rfe-n1/rfe-n1-conv1/weights"
      }
    }
  }
}
node {
  name: "regnet/feature_extraction/rgb_feature_extraction/rfe-n1/rfe-n1-conv1/biases/Initializer/zeros"
  op: "Const"
  attr {
    key: "_class"
    value {
      list {
        s: "loc:@regnet/feature_extraction/rgb_feature_extraction/rfe-n1/rfe-n1-conv1/biases"
      }
    }
  }
  attr {
    key: "dtype"
    value {
      type: DT_FLOAT
    }
  }
  attr {
    key: "value"
    value {
      tensor {
        dtype: DT_FLOAT
        tensor_shape {
          dim {
            size: 96
          }
        }
        float_val: 0.0
      }
    }
  }
}
node {
  name: "regnet/feature_extraction/rgb_feature_extraction/rfe-n1/rfe-n1-conv1/biases"
  op: "VariableV2"
  attr {
    key: "_class"
    value {
      list {
        s: "loc:@regnet/feature_extraction/rgb_feature_extraction/rfe-n1/rfe-n1-conv1/biases"
      }
    }
  }
  attr {
    key: "container"
    value {
      s: ""
    }
  }
  attr {
    key: "dtype"
    value {
      type: DT_FLOAT
    }
  }
  attr {
    key: "shape"
    value {
      shape {
        dim {
          size: 96
        }
      }
    }
  }
  attr {
    key: "shared_name"
    value {
      s: ""
    }
  }
}
node {
  name: "regnet/feature_extraction/rgb_feature_extraction/rfe-n1/rfe-n1-conv1/biases/Assign"
  op: "Assign"
  input: "regnet/feature_extraction/rgb_feature_extraction/rfe-n1/rfe-n1-conv1/biases"
  input: "regnet/feature_extraction/rgb_feature_extraction/rfe-n1/rfe-n1-conv1/biases/Initializer/zeros"
  attr {
    key: "T"
    value {
      type: DT_FLOAT
    }
  }
  attr {
    key: "_class"
    value {
      list {
        s: "loc:@regnet/feature_extraction/rgb_feature_extraction/rfe-n1/rfe-n1-conv1/biases"
      }
    }
  }
  attr {
    key: "use_locking"
    value {
      b: true
    }
  }
  attr {
    key: "validate_shape"
    value {
      b: true
    }
  }
}
node {
  name: "regnet/feature_extraction/rgb_feature_extraction/rfe-n1/rfe-n1-conv1/biases/read"
  op: "Identity"
  input: "regnet/feature_extraction/rgb_feature_extraction/rfe-n1/rfe-n1-conv1/biases"
  attr {
    key: "T"
    value {
      type: DT_FLOAT
    }
  }
  attr {
    key: "_class"
    value {
      list {
        s: "loc:@regnet/feature_extraction/rgb_feature_extraction/rfe-n1/rfe-n1-conv1/biases"
      }
    }
  }
}
node {
  name: "regnet/feature_extraction/rgb_feature_extraction/rfe-n1/rfe-n1-conv1/dilation_rate"
  op: "Const"
  attr {
    key: "dtype"
    value {
      type: DT_INT32
    }
  }
  attr {
    key: "value"
    value {
      tensor {
        dtype: DT_INT32
        tensor_shape {
          dim {
            size: 2
          }
        }
        tensor_content: "\001\000\000\000\001\000\000\000"
      }
    }
  }
}
node {
  name: "regnet/feature_extraction/rgb_feature_extraction/rfe-n1/rfe-n1-conv1/Conv2D"
  op: "Conv2D"
  input: "rgb_in"
  input: "regnet/feature_extraction/rgb_feature_extraction/rfe-n1/rfe-n1-conv1/weights/read"
  attr {
    key: "T"
    value {
      type: DT_FLOAT
    }
  }
  attr {
    key: "data_format"
    value {
      s: "NHWC"
    }
  }
  attr {
    key: "dilations"
    value {
      list {
        i: 1
        i: 1
        i: 1
        i: 1
      }
    }
  }
  attr {
    key: "padding"
    value {
      s: "SAME"
    }
  }
  attr {
    key: "strides"
    value {
      list {
        i: 1
        i: 4
        i: 4
        i: 1
      }
    }
  }
  attr {
    key: "use_cudnn_on_gpu"
    value {
      b: true
    }
  }
}
node {
  name: "regnet/feature_extraction/rgb_feature_extraction/rfe-n1/rfe-n1-conv1/BiasAdd"
  op: "BiasAdd"
  input: "regnet/feature_extraction/rgb_feature_extraction/rfe-n1/rfe-n1-conv1/Conv2D"
  input: "regnet/feature_extraction/rgb_feature_extraction/rfe-n1/rfe-n1-conv1/biases/read"
  attr {
    key: "T"
    value {
      type: DT_FLOAT
    }
  }
  attr {
    key: "data_format"
    value {
      s: "NHWC"
    }
  }
}
node {
  name: "regnet/feature_extraction/rgb_feature_extraction/rfe-n1/rfe-n1-conv1/Relu"
  op: "Relu"
  input: "regnet/feature_extraction/rgb_feature_extraction/rfe-n1/rfe-n1-conv1/BiasAdd"
  attr {
    key: "T"
    value {
      type: DT_FLOAT
    }
  }
}
node {
  name: "regnet/feature_extraction/rgb_feature_extraction/rfe-n1/rfe-n1-cccp1/weights/Initializer/random_uniform/shape"
  op: "Const"
  attr {
    key: "_class"
    value {
      list {
        s: "loc:@regnet/feature_extraction/rgb_feature_extraction/rfe-n1/rfe-n1-cccp1/weights"
      }
    }
  }
  attr {
    key: "dtype"
    value {
      type: DT_INT32
    }
  }
  attr {
    key: "value"
    value {
      tensor {
        dtype: DT_INT32
        tensor_shape {
          dim {
            size: 4
          }
        }
        tensor_content: "\001\000\000\000\001\000\000\000`\000\000\000`\000\000\000"
      }
    }
  }
}
node {
  name: "regnet/feature_extraction/rgb_feature_extraction/rfe-n1/rfe-n1-cccp1/weights/Initializer/random_uniform/min"
  op: "Const"
  attr {
    key: "_class"
    value {
      list {
        s: "loc:@regnet/feature_extraction/rgb_feature_extraction/rfe-n1/rfe-n1-cccp1/weights"
      }
    }
  }
  attr {
    key: "dtype"
    value {
      type: DT_FLOAT
    }
  }
  attr {
    key: "value"
    value {
      tensor {
        dtype: DT_FLOAT
        tensor_shape {
        }
        float_val: -0.1767766922712326
      }
    }
  }
}
node {
  name: "regnet/feature_extraction/rgb_feature_extraction/rfe-n1/rfe-n1-cccp1/weights/Initializer/random_uniform/max"
  op: "Const"
  attr {
    key: "_class"
    value {
      list {
        s: "loc:@regnet/feature_extraction/rgb_feature_extraction/rfe-n1/rfe-n1-cccp1/weights"
      }
    }
  }
  attr {
    key: "dtype"
    value {
      type: DT_FLOAT
    }
  }
  attr {
    key: "value"
    value {
      tensor {
        dtype: DT_FLOAT
        tensor_shape {
        }
        float_val: 0.1767766922712326
      }
    }
  }
}
node {
  name: "regnet/feature_extraction/rgb_feature_extraction/rfe-n1/rfe-n1-cccp1/weights/Initializer/random_uniform/RandomUniform"
  op: "RandomUniform"
  input: "regnet/feature_extraction/rgb_feature_extraction/rfe-n1/rfe-n1-cccp1/weights/Initializer/random_uniform/shape"
  attr {
    key: "T"
    value {
      type: DT_INT32
    }
  }
  attr {
    key: "_class"
    value {
      list {
        s: "loc:@regnet/feature_extraction/rgb_feature_extraction/rfe-n1/rfe-n1-cccp1/weights"
      }
    }
  }
  attr {
    key: "dtype"
    value {
      type: DT_FLOAT
    }
  }
  attr {
    key: "seed"
    value {
      i: 0
    }
  }
  attr {
    key: "seed2"
    value {
      i: 0
    }
  }
}
node {
  name: "regnet/feature_extraction/rgb_feature_extraction/rfe-n1/rfe-n1-cccp1/weights/Initializer/random_uniform/sub"
  op: "Sub"
  input: "regnet/feature_extraction/rgb_feature_extraction/rfe-n1/rfe-n1-cccp1/weights/Initializer/random_uniform/max"
  input: "regnet/feature_extraction/rgb_feature_extraction/rfe-n1/rfe-n1-cccp1/weights/Initializer/random_uniform/min"
  attr {
    key: "T"
    value {
      type: DT_FLOAT
    }
  }
  attr {
    key: "_class"
    value {
      list {
        s: "loc:@regnet/feature_extraction/rgb_feature_extraction/rfe-n1/rfe-n1-cccp1/weights"
      }
    }
  }
}
node {
  name: "regnet/feature_extraction/rgb_feature_extraction/rfe-n1/rfe-n1-cccp1/weights/Initializer/random_uniform/mul"
  op: "Mul"
  input: "regnet/feature_extraction/rgb_feature_extraction/rfe-n1/rfe-n1-cccp1/weights/Initializer/random_uniform/RandomUniform"
  input: "regnet/feature_extraction/rgb_feature_extraction/rfe-n1/rfe-n1-cccp1/weights/Initializer/random_uniform/sub"
  attr {
    key: "T"
    value {
      type: DT_FLOAT
    }
  }
  attr {
    key: "_class"
    value {
      list {
        s: "loc:@regnet/feature_extraction/rgb_feature_extraction/rfe-n1/rfe-n1-cccp1/weights"
      }
    }
  }
}
node {
  name: "regnet/feature_extraction/rgb_feature_extraction/rfe-n1/rfe-n1-cccp1/weights/Initializer/random_uniform"
  op: "Add"
  input: "regnet/feature_extraction/rgb_feature_extraction/rfe-n1/rfe-n1-cccp1/weights/Initializer/random_uniform/mul"
  input: "regnet/feature_extraction/rgb_feature_extraction/rfe-n1/rfe-n1-cccp1/weights/Initializer/random_uniform/min"
  attr {
    key: "T"
    value {
      type: DT_FLOAT
    }
  }
  attr {
    key: "_class"
    value {
      list {
        s: "loc:@regnet/feature_extraction/rgb_feature_extraction/rfe-n1/rfe-n1-cccp1/weights"
      }
    }
  }
}
node {
  name: "regnet/feature_extraction/rgb_feature_extraction/rfe-n1/rfe-n1-cccp1/weights"
  op: "VariableV2"
  attr {
    key: "_class"
    value {
      list {
        s: "loc:@regnet/feature_extraction/rgb_feature_extraction/rfe-n1/rfe-n1-cccp1/weights"
      }
    }
  }
  attr {
    key: "container"
    value {
      s: ""
    }
  }
  attr {
    key: "dtype"
    value {
      type: DT_FLOAT
    }
  }
  attr {
    key: "shape"
    value {
      shape {
        dim {
          size: 1
        }
        dim {
          size: 1
        }
        dim {
          size: 96
        }
        dim {
          size: 96
        }
      }
    }
  }
  attr {
    key: "shared_name"
    value {
      s: ""
    }
  }
}
node {
  name: "regnet/feature_extraction/rgb_feature_extraction/rfe-n1/rfe-n1-cccp1/weights/Assign"
  op: "Assign"
  input: "regnet/feature_extraction/rgb_feature_extraction/rfe-n1/rfe-n1-cccp1/weights"
  input: "regnet/feature_extraction/rgb_feature_extraction/rfe-n1/rfe-n1-cccp1/weights/Initializer/random_uniform"
  attr {
    key: "T"
    value {
      type: DT_FLOAT
    }
  }
  attr {
    key: "_class"
    value {
      list {
        s: "loc:@regnet/feature_extraction/rgb_feature_extraction/rfe-n1/rfe-n1-cccp1/weights"
      }
    }
  }
  attr {
    key: "use_locking"
    value {
      b: true
    }
  }
  attr {
    key: "validate_shape"
    value {
      b: true
    }
  }
}
node {
  name: "regnet/feature_extraction/rgb_feature_extraction/rfe-n1/rfe-n1-cccp1/weights/read"
  op: "Identity"
  input: "regnet/feature_extraction/rgb_feature_extraction/rfe-n1/rfe-n1-cccp1/weights"
  attr {
    key: "T"
    value {
      type: DT_FLOAT
    }
  }
  attr {
    key: "_class"
    value {
      list {
        s: "loc:@regnet/feature_extraction/rgb_feature_extraction/rfe-n1/rfe-n1-cccp1/weights"
      }
    }
  }
}
node {
  name: "regnet/feature_extraction/rgb_feature_extraction/rfe-n1/rfe-n1-cccp1/biases/Initializer/zeros"
  op: "Const"
  attr {
    key: "_class"
    value {
      list {
        s: "loc:@regnet/feature_extraction/rgb_feature_extraction/rfe-n1/rfe-n1-cccp1/biases"
      }
    }
  }
  attr {
    key: "dtype"
    value {
      type: DT_FLOAT
    }
  }
  attr {
    key: "value"
    value {
      tensor {
        dtype: DT_FLOAT
        tensor_shape {
          dim {
            size: 96
          }
        }
        float_val: 0.0
      }
    }
  }
}
node {
  name: "regnet/feature_extraction/rgb_feature_extraction/rfe-n1/rfe-n1-cccp1/biases"
  op: "VariableV2"
  attr {
    key: "_class"
    value {
      list {
        s: "loc:@regnet/feature_extraction/rgb_feature_extraction/rfe-n1/rfe-n1-cccp1/biases"
      }
    }
  }
  attr {
    key: "container"
    value {
      s: ""
    }
  }
  attr {
    key: "dtype"
    value {
      type: DT_FLOAT
    }
  }
  attr {
    key: "shape"
    value {
      shape {
        dim {
          size: 96
        }
      }
    }
  }
  attr {
    key: "shared_name"
    value {
      s: ""
    }
  }
}
node {
  name: "regnet/feature_extraction/rgb_feature_extraction/rfe-n1/rfe-n1-cccp1/biases/Assign"
  op: "Assign"
  input: "regnet/feature_extraction/rgb_feature_extraction/rfe-n1/rfe-n1-cccp1/biases"
  input: "regnet/feature_extraction/rgb_feature_extraction/rfe-n1/rfe-n1-cccp1/biases/Initializer/zeros"
  attr {
    key: "T"
    value {
      type: DT_FLOAT
    }
  }
  attr {
    key: "_class"
    value {
      list {
        s: "loc:@regnet/feature_extraction/rgb_feature_extraction/rfe-n1/rfe-n1-cccp1/biases"
      }
    }
  }
  attr {
    key: "use_locking"
    value {
      b: true
    }
  }
  attr {
    key: "validate_shape"
    value {
      b: true
    }
  }
}
node {
  name: "regnet/feature_extraction/rgb_feature_extraction/rfe-n1/rfe-n1-cccp1/biases/read"
  op: "Identity"
  input: "regnet/feature_extraction/rgb_feature_extraction/rfe-n1/rfe-n1-cccp1/biases"
  attr {
    key: "T"
    value {
      type: DT_FLOAT
    }
  }
  attr {
    key: "_class"
    value {
      list {
        s: "loc:@regnet/feature_extraction/rgb_feature_extraction/rfe-n1/rfe-n1-cccp1/biases"
      }
    }
  }
}
node {
  name: "regnet/feature_extraction/rgb_feature_extraction/rfe-n1/rfe-n1-cccp1/dilation_rate"
  op: "Const"
  attr {
    key: "dtype"
    value {
      type: DT_INT32
    }
  }
  attr {
    key: "value"
    value {
      tensor {
        dtype: DT_INT32
        tensor_shape {
          dim {
            size: 2
          }
        }
        tensor_content: "\001\000\000\000\001\000\000\000"
      }
    }
  }
}
node {
  name: "regnet/feature_extraction/rgb_feature_extraction/rfe-n1/rfe-n1-cccp1/Conv2D"
  op: "Conv2D"
  input: "regnet/feature_extraction/rgb_feature_extraction/rfe-n1/rfe-n1-conv1/Relu"
  input: "regnet/feature_extraction/rgb_feature_extraction/rfe-n1/rfe-n1-cccp1/weights/read"
  attr {
    key: "T"
    value {
      type: DT_FLOAT
    }
  }
  attr {
    key: "data_format"
    value {
      s: "NHWC"
    }
  }
  attr {
    key: "dilations"
    value {
      list {
        i: 1
        i: 1
        i: 1
        i: 1
      }
    }
  }
  attr {
    key: "padding"
    value {
      s: "SAME"
    }
  }
  attr {
    key: "strides"
    value {
      list {
        i: 1
        i: 1
        i: 1
        i: 1
      }
    }
  }
  attr {
    key: "use_cudnn_on_gpu"
    value {
      b: true
    }
  }
}
node {
  name: "regnet/feature_extraction/rgb_feature_extraction/rfe-n1/rfe-n1-cccp1/BiasAdd"
  op: "BiasAdd"
  input: "regnet/feature_extraction/rgb_feature_extraction/rfe-n1/rfe-n1-cccp1/Conv2D"
  input: "regnet/feature_extraction/rgb_feature_extraction/rfe-n1/rfe-n1-cccp1/biases/read"
  attr {
    key: "T"
    value {
      type: DT_FLOAT
    }
  }
  attr {
    key: "data_format"
    value {
      s: "NHWC"
    }
  }
}
node {
  name: "regnet/feature_extraction/rgb_feature_extraction/rfe-n1/rfe-n1-cccp1/Relu"
  op: "Relu"
  input: "regnet/feature_extraction/rgb_feature_extraction/rfe-n1/rfe-n1-cccp1/BiasAdd"
  attr {
    key: "T"
    value {
      type: DT_FLOAT
    }
  }
}
node {
  name: "regnet/feature_extraction/rgb_feature_extraction/rfe-n1/rfe-n1-cccp2/weights/Initializer/random_uniform/shape"
  op: "Const"
  attr {
    key: "_class"
    value {
      list {
        s: "loc:@regnet/feature_extraction/rgb_feature_extraction/rfe-n1/rfe-n1-cccp2/weights"
      }
    }
  }
  attr {
    key: "dtype"
    value {
      type: DT_INT32
    }
  }
  attr {
    key: "value"
    value {
      tensor {
        dtype: DT_INT32
        tensor_shape {
          dim {
            size: 4
          }
        }
        tensor_content: "\001\000\000\000\001\000\000\000`\000\000\000`\000\000\000"
      }
    }
  }
}
node {
  name: "regnet/feature_extraction/rgb_feature_extraction/rfe-n1/rfe-n1-cccp2/weights/Initializer/random_uniform/min"
  op: "Const"
  attr {
    key: "_class"
    value {
      list {
        s: "loc:@regnet/feature_extraction/rgb_feature_extraction/rfe-n1/rfe-n1-cccp2/weights"
      }
    }
  }
  attr {
    key: "dtype"
    value {
      type: DT_FLOAT
    }
  }
  attr {
    key: "value"
    value {
      tensor {
        dtype: DT_FLOAT
        tensor_shape {
        }
        float_val: -0.1767766922712326
      }
    }
  }
}
node {
  name: "regnet/feature_extraction/rgb_feature_extraction/rfe-n1/rfe-n1-cccp2/weights/Initializer/random_uniform/max"
  op: "Const"
  attr {
    key: "_class"
    value {
      list {
        s: "loc:@regnet/feature_extraction/rgb_feature_extraction/rfe-n1/rfe-n1-cccp2/weights"
      }
    }
  }
  attr {
    key: "dtype"
    value {
      type: DT_FLOAT
    }
  }
  attr {
    key: "value"
    value {
      tensor {
        dtype: DT_FLOAT
        tensor_shape {
        }
        float_val: 0.1767766922712326
      }
    }
  }
}
node {
  name: "regnet/feature_extraction/rgb_feature_extraction/rfe-n1/rfe-n1-cccp2/weights/Initializer/random_uniform/RandomUniform"
  op: "RandomUniform"
  input: "regnet/feature_extraction/rgb_feature_extraction/rfe-n1/rfe-n1-cccp2/weights/Initializer/random_uniform/shape"
  attr {
    key: "T"
    value {
      type: DT_INT32
    }
  }
  attr {
    key: "_class"
    value {
      list {
        s: "loc:@regnet/feature_extraction/rgb_feature_extraction/rfe-n1/rfe-n1-cccp2/weights"
      }
    }
  }
  attr {
    key: "dtype"
    value {
      type: DT_FLOAT
    }
  }
  attr {
    key: "seed"
    value {
      i: 0
    }
  }
  attr {
    key: "seed2"
    value {
      i: 0
    }
  }
}
node {
  name: "regnet/feature_extraction/rgb_feature_extraction/rfe-n1/rfe-n1-cccp2/weights/Initializer/random_uniform/sub"
  op: "Sub"
  input: "regnet/feature_extraction/rgb_feature_extraction/rfe-n1/rfe-n1-cccp2/weights/Initializer/random_uniform/max"
  input: "regnet/feature_extraction/rgb_feature_extraction/rfe-n1/rfe-n1-cccp2/weights/Initializer/random_uniform/min"
  attr {
    key: "T"
    value {
      type: DT_FLOAT
    }
  }
  attr {
    key: "_class"
    value {
      list {
        s: "loc:@regnet/feature_extraction/rgb_feature_extraction/rfe-n1/rfe-n1-cccp2/weights"
      }
    }
  }
}
node {
  name: "regnet/feature_extraction/rgb_feature_extraction/rfe-n1/rfe-n1-cccp2/weights/Initializer/random_uniform/mul"
  op: "Mul"
  input: "regnet/feature_extraction/rgb_feature_extraction/rfe-n1/rfe-n1-cccp2/weights/Initializer/random_uniform/RandomUniform"
  input: "regnet/feature_extraction/rgb_feature_extraction/rfe-n1/rfe-n1-cccp2/weights/Initializer/random_uniform/sub"
  attr {
    key: "T"
    value {
      type: DT_FLOAT
    }
  }
  attr {
    key: "_class"
    value {
      list {
        s: "loc:@regnet/feature_extraction/rgb_feature_extraction/rfe-n1/rfe-n1-cccp2/weights"
      }
    }
  }
}
node {
  name: "regnet/feature_extraction/rgb_feature_extraction/rfe-n1/rfe-n1-cccp2/weights/Initializer/random_uniform"
  op: "Add"
  input: "regnet/feature_extraction/rgb_feature_extraction/rfe-n1/rfe-n1-cccp2/weights/Initializer/random_uniform/mul"
  input: "regnet/feature_extraction/rgb_feature_extraction/rfe-n1/rfe-n1-cccp2/weights/Initializer/random_uniform/min"
  attr {
    key: "T"
    value {
      type: DT_FLOAT
    }
  }
  attr {
    key: "_class"
    value {
      list {
        s: "loc:@regnet/feature_extraction/rgb_feature_extraction/rfe-n1/rfe-n1-cccp2/weights"
      }
    }
  }
}
node {
  name: "regnet/feature_extraction/rgb_feature_extraction/rfe-n1/rfe-n1-cccp2/weights"
  op: "VariableV2"
  attr {
    key: "_class"
    value {
      list {
        s: "loc:@regnet/feature_extraction/rgb_feature_extraction/rfe-n1/rfe-n1-cccp2/weights"
      }
    }
  }
  attr {
    key: "container"
    value {
      s: ""
    }
  }
  attr {
    key: "dtype"
    value {
      type: DT_FLOAT
    }
  }
  attr {
    key: "shape"
    value {
      shape {
        dim {
          size: 1
        }
        dim {
          size: 1
        }
        dim {
          size: 96
        }
        dim {
          size: 96
        }
      }
    }
  }
  attr {
    key: "shared_name"
    value {
      s: ""
    }
  }
}
node {
  name: "regnet/feature_extraction/rgb_feature_extraction/rfe-n1/rfe-n1-cccp2/weights/Assign"
  op: "Assign"
  input: "regnet/feature_extraction/rgb_feature_extraction/rfe-n1/rfe-n1-cccp2/weights"
  input: "regnet/feature_extraction/rgb_feature_extraction/rfe-n1/rfe-n1-cccp2/weights/Initializer/random_uniform"
  attr {
    key: "T"
    value {
      type: DT_FLOAT
    }
  }
  attr {
    key: "_class"
    value {
      list {
        s: "loc:@regnet/feature_extraction/rgb_feature_extraction/rfe-n1/rfe-n1-cccp2/weights"
      }
    }
  }
  attr {
    key: "use_locking"
    value {
      b: true
    }
  }
  attr {
    key: "validate_shape"
    value {
      b: true
    }
  }
}
node {
  name: "regnet/feature_extraction/rgb_feature_extraction/rfe-n1/rfe-n1-cccp2/weights/read"
  op: "Identity"
  input: "regnet/feature_extraction/rgb_feature_extraction/rfe-n1/rfe-n1-cccp2/weights"
  attr {
    key: "T"
    value {
      type: DT_FLOAT
    }
  }
  attr {
    key: "_class"
    value {
      list {
        s: "loc:@regnet/feature_extraction/rgb_feature_extraction/rfe-n1/rfe-n1-cccp2/weights"
      }
    }
  }
}
node {
  name: "regnet/feature_extraction/rgb_feature_extraction/rfe-n1/rfe-n1-cccp2/biases/Initializer/zeros"
  op: "Const"
  attr {
    key: "_class"
    value {
      list {
        s: "loc:@regnet/feature_extraction/rgb_feature_extraction/rfe-n1/rfe-n1-cccp2/biases"
      }
    }
  }
  attr {
    key: "dtype"
    value {
      type: DT_FLOAT
    }
  }
  attr {
    key: "value"
    value {
      tensor {
        dtype: DT_FLOAT
        tensor_shape {
          dim {
            size: 96
          }
        }
        float_val: 0.0
      }
    }
  }
}
node {
  name: "regnet/feature_extraction/rgb_feature_extraction/rfe-n1/rfe-n1-cccp2/biases"
  op: "VariableV2"
  attr {
    key: "_class"
    value {
      list {
        s: "loc:@regnet/feature_extraction/rgb_feature_extraction/rfe-n1/rfe-n1-cccp2/biases"
      }
    }
  }
  attr {
    key: "container"
    value {
      s: ""
    }
  }
  attr {
    key: "dtype"
    value {
      type: DT_FLOAT
    }
  }
  attr {
    key: "shape"
    value {
      shape {
        dim {
          size: 96
        }
      }
    }
  }
  attr {
    key: "shared_name"
    value {
      s: ""
    }
  }
}
node {
  name: "regnet/feature_extraction/rgb_feature_extraction/rfe-n1/rfe-n1-cccp2/biases/Assign"
  op: "Assign"
  input: "regnet/feature_extraction/rgb_feature_extraction/rfe-n1/rfe-n1-cccp2/biases"
  input: "regnet/feature_extraction/rgb_feature_extraction/rfe-n1/rfe-n1-cccp2/biases/Initializer/zeros"
  attr {
    key: "T"
    value {
      type: DT_FLOAT
    }
  }
  attr {
    key: "_class"
    value {
      list {
        s: "loc:@regnet/feature_extraction/rgb_feature_extraction/rfe-n1/rfe-n1-cccp2/biases"
      }
    }
  }
  attr {
    key: "use_locking"
    value {
      b: true
    }
  }
  attr {
    key: "validate_shape"
    value {
      b: true
    }
  }
}
node {
  name: "regnet/feature_extraction/rgb_feature_extraction/rfe-n1/rfe-n1-cccp2/biases/read"
  op: "Identity"
  input: "regnet/feature_extraction/rgb_feature_extraction/rfe-n1/rfe-n1-cccp2/biases"
  attr {
    key: "T"
    value {
      type: DT_FLOAT
    }
  }
  attr {
    key: "_class"
    value {
      list {
        s: "loc:@regnet/feature_extraction/rgb_feature_extraction/rfe-n1/rfe-n1-cccp2/biases"
      }
    }
  }
}
node {
  name: "regnet/feature_extraction/rgb_feature_extraction/rfe-n1/rfe-n1-cccp2/dilation_rate"
  op: "Const"
  attr {
    key: "dtype"
    value {
      type: DT_INT32
    }
  }
  attr {
    key: "value"
    value {
      tensor {
        dtype: DT_INT32
        tensor_shape {
          dim {
            size: 2
          }
        }
        tensor_content: "\001\000\000\000\001\000\000\000"
      }
    }
  }
}
node {
  name: "regnet/feature_extraction/rgb_feature_extraction/rfe-n1/rfe-n1-cccp2/Conv2D"
  op: "Conv2D"
  input: "regnet/feature_extraction/rgb_feature_extraction/rfe-n1/rfe-n1-cccp1/Relu"
  input: "regnet/feature_extraction/rgb_feature_extraction/rfe-n1/rfe-n1-cccp2/weights/read"
  attr {
    key: "T"
    value {
      type: DT_FLOAT
    }
  }
  attr {
    key: "data_format"
    value {
      s: "NHWC"
    }
  }
  attr {
    key: "dilations"
    value {
      list {
        i: 1
        i: 1
        i: 1
        i: 1
      }
    }
  }
  attr {
    key: "padding"
    value {
      s: "SAME"
    }
  }
  attr {
    key: "strides"
    value {
      list {
        i: 1
        i: 1
        i: 1
        i: 1
      }
    }
  }
  attr {
    key: "use_cudnn_on_gpu"
    value {
      b: true
    }
  }
}
node {
  name: "regnet/feature_extraction/rgb_feature_extraction/rfe-n1/rfe-n1-cccp2/BiasAdd"
  op: "BiasAdd"
  input: "regnet/feature_extraction/rgb_feature_extraction/rfe-n1/rfe-n1-cccp2/Conv2D"
  input: "regnet/feature_extraction/rgb_feature_extraction/rfe-n1/rfe-n1-cccp2/biases/read"
  attr {
    key: "T"
    value {
      type: DT_FLOAT
    }
  }
  attr {
    key: "data_format"
    value {
      s: "NHWC"
    }
  }
}
node {
  name: "regnet/feature_extraction/rgb_feature_extraction/rfe-n1/rfe-n1-cccp2/Relu"
  op: "Relu"
  input: "regnet/feature_extraction/rgb_feature_extraction/rfe-n1/rfe-n1-cccp2/BiasAdd"
  attr {
    key: "T"
    value {
      type: DT_FLOAT
    }
  }
}
node {
  name: "regnet/feature_extraction/rgb_feature_extraction/rfe-n1/rfe-n1-max/MaxPool"
  op: "MaxPool"
  input: "regnet/feature_extraction/rgb_feature_extraction/rfe-n1/rfe-n1-cccp2/Relu"
  attr {
    key: "T"
    value {
      type: DT_FLOAT
    }
  }
  attr {
    key: "data_format"
    value {
      s: "NHWC"
    }
  }
  attr {
    key: "ksize"
    value {
      list {
        i: 1
        i: 3
        i: 3
        i: 1
      }
    }
  }
  attr {
    key: "padding"
    value {
      s: "SAME"
    }
  }
  attr {
    key: "strides"
    value {
      list {
        i: 1
        i: 2
        i: 2
        i: 1
      }
    }
  }
}
node {
  name: "regnet/feature_extraction/rgb_feature_extraction/rfe-n2/rfe-n2-conv1/weights/Initializer/random_uniform/shape"
  op: "Const"
  attr {
    key: "_class"
    value {
      list {
        s: "loc:@regnet/feature_extraction/rgb_feature_extraction/rfe-n2/rfe-n2-conv1/weights"
      }
    }
  }
  attr {
    key: "dtype"
    value {
      type: DT_INT32
    }
  }
  attr {
    key: "value"
    value {
      tensor {
        dtype: DT_INT32
        tensor_shape {
          dim {
            size: 4
          }
        }
        tensor_content: "\005\000\000\000\005\000\000\000`\000\000\000\000\001\000\000"
      }
    }
  }
}
node {
  name: "regnet/feature_extraction/rgb_feature_extraction/rfe-n2/rfe-n2-conv1/weights/Initializer/random_uniform/min"
  op: "Const"
  attr {
    key: "_class"
    value {
      list {
        s: "loc:@regnet/feature_extraction/rgb_feature_extraction/rfe-n2/rfe-n2-conv1/weights"
      }
    }
  }
  attr {
    key: "dtype"
    value {
      type: DT_FLOAT
    }
  }
  attr {
    key: "value"
    value {
      tensor {
        dtype: DT_FLOAT
        tensor_shape {
        }
        float_val: -0.026111647486686707
      }
    }
  }
}
node {
  name: "regnet/feature_extraction/rgb_feature_extraction/rfe-n2/rfe-n2-conv1/weights/Initializer/random_uniform/max"
  op: "Const"
  attr {
    key: "_class"
    value {
      list {
        s: "loc:@regnet/feature_extraction/rgb_feature_extraction/rfe-n2/rfe-n2-conv1/weights"
      }
    }
  }
  attr {
    key: "dtype"
    value {
      type: DT_FLOAT
    }
  }
  attr {
    key: "value"
    value {
      tensor {
        dtype: DT_FLOAT
        tensor_shape {
        }
        float_val: 0.026111647486686707
      }
    }
  }
}
node {
  name: "regnet/feature_extraction/rgb_feature_extraction/rfe-n2/rfe-n2-conv1/weights/Initializer/random_uniform/RandomUniform"
  op: "RandomUniform"
  input: "regnet/feature_extraction/rgb_feature_extraction/rfe-n2/rfe-n2-conv1/weights/Initializer/random_uniform/shape"
  attr {
    key: "T"
    value {
      type: DT_INT32
    }
  }
  attr {
    key: "_class"
    value {
      list {
        s: "loc:@regnet/feature_extraction/rgb_feature_extraction/rfe-n2/rfe-n2-conv1/weights"
      }
    }
  }
  attr {
    key: "dtype"
    value {
      type: DT_FLOAT
    }
  }
  attr {
    key: "seed"
    value {
      i: 0
    }
  }
  attr {
    key: "seed2"
    value {
      i: 0
    }
  }
}
node {
  name: "regnet/feature_extraction/rgb_feature_extraction/rfe-n2/rfe-n2-conv1/weights/Initializer/random_uniform/sub"
  op: "Sub"
  input: "regnet/feature_extraction/rgb_feature_extraction/rfe-n2/rfe-n2-conv1/weights/Initializer/random_uniform/max"
  input: "regnet/feature_extraction/rgb_feature_extraction/rfe-n2/rfe-n2-conv1/weights/Initializer/random_uniform/min"
  attr {
    key: "T"
    value {
      type: DT_FLOAT
    }
  }
  attr {
    key: "_class"
    value {
      list {
        s: "loc:@regnet/feature_extraction/rgb_feature_extraction/rfe-n2/rfe-n2-conv1/weights"
      }
    }
  }
}
node {
  name: "regnet/feature_extraction/rgb_feature_extraction/rfe-n2/rfe-n2-conv1/weights/Initializer/random_uniform/mul"
  op: "Mul"
  input: "regnet/feature_extraction/rgb_feature_extraction/rfe-n2/rfe-n2-conv1/weights/Initializer/random_uniform/RandomUniform"
  input: "regnet/feature_extraction/rgb_feature_extraction/rfe-n2/rfe-n2-conv1/weights/Initializer/random_uniform/sub"
  attr {
    key: "T"
    value {
      type: DT_FLOAT
    }
  }
  attr {
    key: "_class"
    value {
      list {
        s: "loc:@regnet/feature_extraction/rgb_feature_extraction/rfe-n2/rfe-n2-conv1/weights"
      }
    }
  }
}
node {
  name: "regnet/feature_extraction/rgb_feature_extraction/rfe-n2/rfe-n2-conv1/weights/Initializer/random_uniform"
  op: "Add"
  input: "regnet/feature_extraction/rgb_feature_extraction/rfe-n2/rfe-n2-conv1/weights/Initializer/random_uniform/mul"
  input: "regnet/feature_extraction/rgb_feature_extraction/rfe-n2/rfe-n2-conv1/weights/Initializer/random_uniform/min"
  attr {
    key: "T"
    value {
      type: DT_FLOAT
    }
  }
  attr {
    key: "_class"
    value {
      list {
        s: "loc:@regnet/feature_extraction/rgb_feature_extraction/rfe-n2/rfe-n2-conv1/weights"
      }
    }
  }
}
node {
  name: "regnet/feature_extraction/rgb_feature_extraction/rfe-n2/rfe-n2-conv1/weights"
  op: "VariableV2"
  attr {
    key: "_class"
    value {
      list {
        s: "loc:@regnet/feature_extraction/rgb_feature_extraction/rfe-n2/rfe-n2-conv1/weights"
      }
    }
  }
  attr {
    key: "container"
    value {
      s: ""
    }
  }
  attr {
    key: "dtype"
    value {
      type: DT_FLOAT
    }
  }
  attr {
    key: "shape"
    value {
      shape {
        dim {
          size: 5
        }
        dim {
          size: 5
        }
        dim {
          size: 96
        }
        dim {
          size: 256
        }
      }
    }
  }
  attr {
    key: "shared_name"
    value {
      s: ""
    }
  }
}
node {
  name: "regnet/feature_extraction/rgb_feature_extraction/rfe-n2/rfe-n2-conv1/weights/Assign"
  op: "Assign"
  input: "regnet/feature_extraction/rgb_feature_extraction/rfe-n2/rfe-n2-conv1/weights"
  input: "regnet/feature_extraction/rgb_feature_extraction/rfe-n2/rfe-n2-conv1/weights/Initializer/random_uniform"
  attr {
    key: "T"
    value {
      type: DT_FLOAT
    }
  }
  attr {
    key: "_class"
    value {
      list {
        s: "loc:@regnet/feature_extraction/rgb_feature_extraction/rfe-n2/rfe-n2-conv1/weights"
      }
    }
  }
  attr {
    key: "use_locking"
    value {
      b: true
    }
  }
  attr {
    key: "validate_shape"
    value {
      b: true
    }
  }
}
node {
  name: "regnet/feature_extraction/rgb_feature_extraction/rfe-n2/rfe-n2-conv1/weights/read"
  op: "Identity"
  input: "regnet/feature_extraction/rgb_feature_extraction/rfe-n2/rfe-n2-conv1/weights"
  attr {
    key: "T"
    value {
      type: DT_FLOAT
    }
  }
  attr {
    key: "_class"
    value {
      list {
        s: "loc:@regnet/feature_extraction/rgb_feature_extraction/rfe-n2/rfe-n2-conv1/weights"
      }
    }
  }
}
node {
  name: "regnet/feature_extraction/rgb_feature_extraction/rfe-n2/rfe-n2-conv1/biases/Initializer/zeros"
  op: "Const"
  attr {
    key: "_class"
    value {
      list {
        s: "loc:@regnet/feature_extraction/rgb_feature_extraction/rfe-n2/rfe-n2-conv1/biases"
      }
    }
  }
  attr {
    key: "dtype"
    value {
      type: DT_FLOAT
    }
  }
  attr {
    key: "value"
    value {
      tensor {
        dtype: DT_FLOAT
        tensor_shape {
          dim {
            size: 256
          }
        }
        float_val: 0.0
      }
    }
  }
}
node {
  name: "regnet/feature_extraction/rgb_feature_extraction/rfe-n2/rfe-n2-conv1/biases"
  op: "VariableV2"
  attr {
    key: "_class"
    value {
      list {
        s: "loc:@regnet/feature_extraction/rgb_feature_extraction/rfe-n2/rfe-n2-conv1/biases"
      }
    }
  }
  attr {
    key: "container"
    value {
      s: ""
    }
  }
  attr {
    key: "dtype"
    value {
      type: DT_FLOAT
    }
  }
  attr {
    key: "shape"
    value {
      shape {
        dim {
          size: 256
        }
      }
    }
  }
  attr {
    key: "shared_name"
    value {
      s: ""
    }
  }
}
node {
  name: "regnet/feature_extraction/rgb_feature_extraction/rfe-n2/rfe-n2-conv1/biases/Assign"
  op: "Assign"
  input: "regnet/feature_extraction/rgb_feature_extraction/rfe-n2/rfe-n2-conv1/biases"
  input: "regnet/feature_extraction/rgb_feature_extraction/rfe-n2/rfe-n2-conv1/biases/Initializer/zeros"
  attr {
    key: "T"
    value {
      type: DT_FLOAT
    }
  }
  attr {
    key: "_class"
    value {
      list {
        s: "loc:@regnet/feature_extraction/rgb_feature_extraction/rfe-n2/rfe-n2-conv1/biases"
      }
    }
  }
  attr {
    key: "use_locking"
    value {
      b: true
    }
  }
  attr {
    key: "validate_shape"
    value {
      b: true
    }
  }
}
node {
  name: "regnet/feature_extraction/rgb_feature_extraction/rfe-n2/rfe-n2-conv1/biases/read"
  op: "Identity"
  input: "regnet/feature_extraction/rgb_feature_extraction/rfe-n2/rfe-n2-conv1/biases"
  attr {
    key: "T"
    value {
      type: DT_FLOAT
    }
  }
  attr {
    key: "_class"
    value {
      list {
        s: "loc:@regnet/feature_extraction/rgb_feature_extraction/rfe-n2/rfe-n2-conv1/biases"
      }
    }
  }
}
node {
  name: "regnet/feature_extraction/rgb_feature_extraction/rfe-n2/rfe-n2-conv1/dilation_rate"
  op: "Const"
  attr {
    key: "dtype"
    value {
      type: DT_INT32
    }
  }
  attr {
    key: "value"
    value {
      tensor {
        dtype: DT_INT32
        tensor_shape {
          dim {
            size: 2
          }
        }
        tensor_content: "\001\000\000\000\001\000\000\000"
      }
    }
  }
}
node {
  name: "regnet/feature_extraction/rgb_feature_extraction/rfe-n2/rfe-n2-conv1/Conv2D"
  op: "Conv2D"
  input: "regnet/feature_extraction/rgb_feature_extraction/rfe-n1/rfe-n1-max/MaxPool"
  input: "regnet/feature_extraction/rgb_feature_extraction/rfe-n2/rfe-n2-conv1/weights/read"
  attr {
    key: "T"
    value {
      type: DT_FLOAT
    }
  }
  attr {
    key: "data_format"
    value {
      s: "NHWC"
    }
  }
  attr {
    key: "dilations"
    value {
      list {
        i: 1
        i: 1
        i: 1
        i: 1
      }
    }
  }
  attr {
    key: "padding"
    value {
      s: "SAME"
    }
  }
  attr {
    key: "strides"
    value {
      list {
        i: 1
        i: 1
        i: 1
        i: 1
      }
    }
  }
  attr {
    key: "use_cudnn_on_gpu"
    value {
      b: true
    }
  }
}
node {
  name: "regnet/feature_extraction/rgb_feature_extraction/rfe-n2/rfe-n2-conv1/BiasAdd"
  op: "BiasAdd"
  input: "regnet/feature_extraction/rgb_feature_extraction/rfe-n2/rfe-n2-conv1/Conv2D"
  input: "regnet/feature_extraction/rgb_feature_extraction/rfe-n2/rfe-n2-conv1/biases/read"
  attr {
    key: "T"
    value {
      type: DT_FLOAT
    }
  }
  attr {
    key: "data_format"
    value {
      s: "NHWC"
    }
  }
}
node {
  name: "regnet/feature_extraction/rgb_feature_extraction/rfe-n2/rfe-n2-conv1/Relu"
  op: "Relu"
  input: "regnet/feature_extraction/rgb_feature_extraction/rfe-n2/rfe-n2-conv1/BiasAdd"
  attr {
    key: "T"
    value {
      type: DT_FLOAT
    }
  }
}
node {
  name: "regnet/feature_extraction/rgb_feature_extraction/rfe-n2/rfe-n2-cccp1/weights/Initializer/random_uniform/shape"
  op: "Const"
  attr {
    key: "_class"
    value {
      list {
        s: "loc:@regnet/feature_extraction/rgb_feature_extraction/rfe-n2/rfe-n2-cccp1/weights"
      }
    }
  }
  attr {
    key: "dtype"
    value {
      type: DT_INT32
    }
  }
  attr {
    key: "value"
    value {
      tensor {
        dtype: DT_INT32
        tensor_shape {
          dim {
            size: 4
          }
        }
        tensor_content: "\001\000\000\000\001\000\000\000\000\001\000\000\000\001\000\000"
      }
    }
  }
}
node {
  name: "regnet/feature_extraction/rgb_feature_extraction/rfe-n2/rfe-n2-cccp1/weights/Initializer/random_uniform/min"
  op: "Const"
  attr {
    key: "_class"
    value {
      list {
        s: "loc:@regnet/feature_extraction/rgb_feature_extraction/rfe-n2/rfe-n2-cccp1/weights"
      }
    }
  }
  attr {
    key: "dtype"
    value {
      type: DT_FLOAT
    }
  }
  attr {
    key: "value"
    value {
      tensor {
        dtype: DT_FLOAT
        tensor_shape {
        }
        float_val: -0.10825317353010178
      }
    }
  }
}
node {
  name: "regnet/feature_extraction/rgb_feature_extraction/rfe-n2/rfe-n2-cccp1/weights/Initializer/random_uniform/max"
  op: "Const"
  attr {
    key: "_class"
    value {
      list {
        s: "loc:@regnet/feature_extraction/rgb_feature_extraction/rfe-n2/rfe-n2-cccp1/weights"
      }
    }
  }
  attr {
    key: "dtype"
    value {
      type: DT_FLOAT
    }
  }
  attr {
    key: "value"
    value {
      tensor {
        dtype: DT_FLOAT
        tensor_shape {
        }
        float_val: 0.10825317353010178
      }
    }
  }
}
node {
  name: "regnet/feature_extraction/rgb_feature_extraction/rfe-n2/rfe-n2-cccp1/weights/Initializer/random_uniform/RandomUniform"
  op: "RandomUniform"
  input: "regnet/feature_extraction/rgb_feature_extraction/rfe-n2/rfe-n2-cccp1/weights/Initializer/random_uniform/shape"
  attr {
    key: "T"
    value {
      type: DT_INT32
    }
  }
  attr {
    key: "_class"
    value {
      list {
        s: "loc:@regnet/feature_extraction/rgb_feature_extraction/rfe-n2/rfe-n2-cccp1/weights"
      }
    }
  }
  attr {
    key: "dtype"
    value {
      type: DT_FLOAT
    }
  }
  attr {
    key: "seed"
    value {
      i: 0
    }
  }
  attr {
    key: "seed2"
    value {
      i: 0
    }
  }
}
node {
  name: "regnet/feature_extraction/rgb_feature_extraction/rfe-n2/rfe-n2-cccp1/weights/Initializer/random_uniform/sub"
  op: "Sub"
  input: "regnet/feature_extraction/rgb_feature_extraction/rfe-n2/rfe-n2-cccp1/weights/Initializer/random_uniform/max"
  input: "regnet/feature_extraction/rgb_feature_extraction/rfe-n2/rfe-n2-cccp1/weights/Initializer/random_uniform/min"
  attr {
    key: "T"
    value {
      type: DT_FLOAT
    }
  }
  attr {
    key: "_class"
    value {
      list {
        s: "loc:@regnet/feature_extraction/rgb_feature_extraction/rfe-n2/rfe-n2-cccp1/weights"
      }
    }
  }
}
node {
  name: "regnet/feature_extraction/rgb_feature_extraction/rfe-n2/rfe-n2-cccp1/weights/Initializer/random_uniform/mul"
  op: "Mul"
  input: "regnet/feature_extraction/rgb_feature_extraction/rfe-n2/rfe-n2-cccp1/weights/Initializer/random_uniform/RandomUniform"
  input: "regnet/feature_extraction/rgb_feature_extraction/rfe-n2/rfe-n2-cccp1/weights/Initializer/random_uniform/sub"
  attr {
    key: "T"
    value {
      type: DT_FLOAT
    }
  }
  attr {
    key: "_class"
    value {
      list {
        s: "loc:@regnet/feature_extraction/rgb_feature_extraction/rfe-n2/rfe-n2-cccp1/weights"
      }
    }
  }
}
node {
  name: "regnet/feature_extraction/rgb_feature_extraction/rfe-n2/rfe-n2-cccp1/weights/Initializer/random_uniform"
  op: "Add"
  input: "regnet/feature_extraction/rgb_feature_extraction/rfe-n2/rfe-n2-cccp1/weights/Initializer/random_uniform/mul"
  input: "regnet/feature_extraction/rgb_feature_extraction/rfe-n2/rfe-n2-cccp1/weights/Initializer/random_uniform/min"
  attr {
    key: "T"
    value {
      type: DT_FLOAT
    }
  }
  attr {
    key: "_class"
    value {
      list {
        s: "loc:@regnet/feature_extraction/rgb_feature_extraction/rfe-n2/rfe-n2-cccp1/weights"
      }
    }
  }
}
node {
  name: "regnet/feature_extraction/rgb_feature_extraction/rfe-n2/rfe-n2-cccp1/weights"
  op: "VariableV2"
  attr {
    key: "_class"
    value {
      list {
        s: "loc:@regnet/feature_extraction/rgb_feature_extraction/rfe-n2/rfe-n2-cccp1/weights"
      }
    }
  }
  attr {
    key: "container"
    value {
      s: ""
    }
  }
  attr {
    key: "dtype"
    value {
      type: DT_FLOAT
    }
  }
  attr {
    key: "shape"
    value {
      shape {
        dim {
          size: 1
        }
        dim {
          size: 1
        }
        dim {
          size: 256
        }
        dim {
          size: 256
        }
      }
    }
  }
  attr {
    key: "shared_name"
    value {
      s: ""
    }
  }
}
node {
  name: "regnet/feature_extraction/rgb_feature_extraction/rfe-n2/rfe-n2-cccp1/weights/Assign"
  op: "Assign"
  input: "regnet/feature_extraction/rgb_feature_extraction/rfe-n2/rfe-n2-cccp1/weights"
  input: "regnet/feature_extraction/rgb_feature_extraction/rfe-n2/rfe-n2-cccp1/weights/Initializer/random_uniform"
  attr {
    key: "T"
    value {
      type: DT_FLOAT
    }
  }
  attr {
    key: "_class"
    value {
      list {
        s: "loc:@regnet/feature_extraction/rgb_feature_extraction/rfe-n2/rfe-n2-cccp1/weights"
      }
    }
  }
  attr {
    key: "use_locking"
    value {
      b: true
    }
  }
  attr {
    key: "validate_shape"
    value {
      b: true
    }
  }
}
node {
  name: "regnet/feature_extraction/rgb_feature_extraction/rfe-n2/rfe-n2-cccp1/weights/read"
  op: "Identity"
  input: "regnet/feature_extraction/rgb_feature_extraction/rfe-n2/rfe-n2-cccp1/weights"
  attr {
    key: "T"
    value {
      type: DT_FLOAT
    }
  }
  attr {
    key: "_class"
    value {
      list {
        s: "loc:@regnet/feature_extraction/rgb_feature_extraction/rfe-n2/rfe-n2-cccp1/weights"
      }
    }
  }
}
node {
  name: "regnet/feature_extraction/rgb_feature_extraction/rfe-n2/rfe-n2-cccp1/biases/Initializer/zeros"
  op: "Const"
  attr {
    key: "_class"
    value {
      list {
        s: "loc:@regnet/feature_extraction/rgb_feature_extraction/rfe-n2/rfe-n2-cccp1/biases"
      }
    }
  }
  attr {
    key: "dtype"
    value {
      type: DT_FLOAT
    }
  }
  attr {
    key: "value"
    value {
      tensor {
        dtype: DT_FLOAT
        tensor_shape {
          dim {
            size: 256
          }
        }
        float_val: 0.0
      }
    }
  }
}
node {
  name: "regnet/feature_extraction/rgb_feature_extraction/rfe-n2/rfe-n2-cccp1/biases"
  op: "VariableV2"
  attr {
    key: "_class"
    value {
      list {
        s: "loc:@regnet/feature_extraction/rgb_feature_extraction/rfe-n2/rfe-n2-cccp1/biases"
      }
    }
  }
  attr {
    key: "container"
    value {
      s: ""
    }
  }
  attr {
    key: "dtype"
    value {
      type: DT_FLOAT
    }
  }
  attr {
    key: "shape"
    value {
      shape {
        dim {
          size: 256
        }
      }
    }
  }
  attr {
    key: "shared_name"
    value {
      s: ""
    }
  }
}
node {
  name: "regnet/feature_extraction/rgb_feature_extraction/rfe-n2/rfe-n2-cccp1/biases/Assign"
  op: "Assign"
  input: "regnet/feature_extraction/rgb_feature_extraction/rfe-n2/rfe-n2-cccp1/biases"
  input: "regnet/feature_extraction/rgb_feature_extraction/rfe-n2/rfe-n2-cccp1/biases/Initializer/zeros"
  attr {
    key: "T"
    value {
      type: DT_FLOAT
    }
  }
  attr {
    key: "_class"
    value {
      list {
        s: "loc:@regnet/feature_extraction/rgb_feature_extraction/rfe-n2/rfe-n2-cccp1/biases"
      }
    }
  }
  attr {
    key: "use_locking"
    value {
      b: true
    }
  }
  attr {
    key: "validate_shape"
    value {
      b: true
    }
  }
}
node {
  name: "regnet/feature_extraction/rgb_feature_extraction/rfe-n2/rfe-n2-cccp1/biases/read"
  op: "Identity"
  input: "regnet/feature_extraction/rgb_feature_extraction/rfe-n2/rfe-n2-cccp1/biases"
  attr {
    key: "T"
    value {
      type: DT_FLOAT
    }
  }
  attr {
    key: "_class"
    value {
      list {
        s: "loc:@regnet/feature_extraction/rgb_feature_extraction/rfe-n2/rfe-n2-cccp1/biases"
      }
    }
  }
}
node {
  name: "regnet/feature_extraction/rgb_feature_extraction/rfe-n2/rfe-n2-cccp1/dilation_rate"
  op: "Const"
  attr {
    key: "dtype"
    value {
      type: DT_INT32
    }
  }
  attr {
    key: "value"
    value {
      tensor {
        dtype: DT_INT32
        tensor_shape {
          dim {
            size: 2
          }
        }
        tensor_content: "\001\000\000\000\001\000\000\000"
      }
    }
  }
}
node {
  name: "regnet/feature_extraction/rgb_feature_extraction/rfe-n2/rfe-n2-cccp1/Conv2D"
  op: "Conv2D"
  input: "regnet/feature_extraction/rgb_feature_extraction/rfe-n2/rfe-n2-conv1/Relu"
  input: "regnet/feature_extraction/rgb_feature_extraction/rfe-n2/rfe-n2-cccp1/weights/read"
  attr {
    key: "T"
    value {
      type: DT_FLOAT
    }
  }
  attr {
    key: "data_format"
    value {
      s: "NHWC"
    }
  }
  attr {
    key: "dilations"
    value {
      list {
        i: 1
        i: 1
        i: 1
        i: 1
      }
    }
  }
  attr {
    key: "padding"
    value {
      s: "SAME"
    }
  }
  attr {
    key: "strides"
    value {
      list {
        i: 1
        i: 1
        i: 1
        i: 1
      }
    }
  }
  attr {
    key: "use_cudnn_on_gpu"
    value {
      b: true
    }
  }
}
node {
  name: "regnet/feature_extraction/rgb_feature_extraction/rfe-n2/rfe-n2-cccp1/BiasAdd"
  op: "BiasAdd"
  input: "regnet/feature_extraction/rgb_feature_extraction/rfe-n2/rfe-n2-cccp1/Conv2D"
  input: "regnet/feature_extraction/rgb_feature_extraction/rfe-n2/rfe-n2-cccp1/biases/read"
  attr {
    key: "T"
    value {
      type: DT_FLOAT
    }
  }
  attr {
    key: "data_format"
    value {
      s: "NHWC"
    }
  }
}
node {
  name: "regnet/feature_extraction/rgb_feature_extraction/rfe-n2/rfe-n2-cccp1/Relu"
  op: "Relu"
  input: "regnet/feature_extraction/rgb_feature_extraction/rfe-n2/rfe-n2-cccp1/BiasAdd"
  attr {
    key: "T"
    value {
      type: DT_FLOAT
    }
  }
}
node {
  name: "regnet/feature_extraction/rgb_feature_extraction/rfe-n2/rfe-n2-cccp2/weights/Initializer/random_uniform/shape"
  op: "Const"
  attr {
    key: "_class"
    value {
      list {
        s: "loc:@regnet/feature_extraction/rgb_feature_extraction/rfe-n2/rfe-n2-cccp2/weights"
      }
    }
  }
  attr {
    key: "dtype"
    value {
      type: DT_INT32
    }
  }
  attr {
    key: "value"
    value {
      tensor {
        dtype: DT_INT32
        tensor_shape {
          dim {
            size: 4
          }
        }
        tensor_content: "\001\000\000\000\001\000\000\000\000\001\000\000\000\001\000\000"
      }
    }
  }
}
node {
  name: "regnet/feature_extraction/rgb_feature_extraction/rfe-n2/rfe-n2-cccp2/weights/Initializer/random_uniform/min"
  op: "Const"
  attr {
    key: "_class"
    value {
      list {
        s: "loc:@regnet/feature_extraction/rgb_feature_extraction/rfe-n2/rfe-n2-cccp2/weights"
      }
    }
  }
  attr {
    key: "dtype"
    value {
      type: DT_FLOAT
    }
  }
  attr {
    key: "value"
    value {
      tensor {
        dtype: DT_FLOAT
        tensor_shape {
        }
        float_val: -0.10825317353010178
      }
    }
  }
}
node {
  name: "regnet/feature_extraction/rgb_feature_extraction/rfe-n2/rfe-n2-cccp2/weights/Initializer/random_uniform/max"
  op: "Const"
  attr {
    key: "_class"
    value {
      list {
        s: "loc:@regnet/feature_extraction/rgb_feature_extraction/rfe-n2/rfe-n2-cccp2/weights"
      }
    }
  }
  attr {
    key: "dtype"
    value {
      type: DT_FLOAT
    }
  }
  attr {
    key: "value"
    value {
      tensor {
        dtype: DT_FLOAT
        tensor_shape {
        }
        float_val: 0.10825317353010178
      }
    }
  }
}
node {
  name: "regnet/feature_extraction/rgb_feature_extraction/rfe-n2/rfe-n2-cccp2/weights/Initializer/random_uniform/RandomUniform"
  op: "RandomUniform"
  input: "regnet/feature_extraction/rgb_feature_extraction/rfe-n2/rfe-n2-cccp2/weights/Initializer/random_uniform/shape"
  attr {
    key: "T"
    value {
      type: DT_INT32
    }
  }
  attr {
    key: "_class"
    value {
      list {
        s: "loc:@regnet/feature_extraction/rgb_feature_extraction/rfe-n2/rfe-n2-cccp2/weights"
      }
    }
  }
  attr {
    key: "dtype"
    value {
      type: DT_FLOAT
    }
  }
  attr {
    key: "seed"
    value {
      i: 0
    }
  }
  attr {
    key: "seed2"
    value {
      i: 0
    }
  }
}
node {
  name: "regnet/feature_extraction/rgb_feature_extraction/rfe-n2/rfe-n2-cccp2/weights/Initializer/random_uniform/sub"
  op: "Sub"
  input: "regnet/feature_extraction/rgb_feature_extraction/rfe-n2/rfe-n2-cccp2/weights/Initializer/random_uniform/max"
  input: "regnet/feature_extraction/rgb_feature_extraction/rfe-n2/rfe-n2-cccp2/weights/Initializer/random_uniform/min"
  attr {
    key: "T"
    value {
      type: DT_FLOAT
    }
  }
  attr {
    key: "_class"
    value {
      list {
        s: "loc:@regnet/feature_extraction/rgb_feature_extraction/rfe-n2/rfe-n2-cccp2/weights"
      }
    }
  }
}
node {
  name: "regnet/feature_extraction/rgb_feature_extraction/rfe-n2/rfe-n2-cccp2/weights/Initializer/random_uniform/mul"
  op: "Mul"
  input: "regnet/feature_extraction/rgb_feature_extraction/rfe-n2/rfe-n2-cccp2/weights/Initializer/random_uniform/RandomUniform"
  input: "regnet/feature_extraction/rgb_feature_extraction/rfe-n2/rfe-n2-cccp2/weights/Initializer/random_uniform/sub"
  attr {
    key: "T"
    value {
      type: DT_FLOAT
    }
  }
  attr {
    key: "_class"
    value {
      list {
        s: "loc:@regnet/feature_extraction/rgb_feature_extraction/rfe-n2/rfe-n2-cccp2/weights"
      }
    }
  }
}
node {
  name: "regnet/feature_extraction/rgb_feature_extraction/rfe-n2/rfe-n2-cccp2/weights/Initializer/random_uniform"
  op: "Add"
  input: "regnet/feature_extraction/rgb_feature_extraction/rfe-n2/rfe-n2-cccp2/weights/Initializer/random_uniform/mul"
  input: "regnet/feature_extraction/rgb_feature_extraction/rfe-n2/rfe-n2-cccp2/weights/Initializer/random_uniform/min"
  attr {
    key: "T"
    value {
      type: DT_FLOAT
    }
  }
  attr {
    key: "_class"
    value {
      list {
        s: "loc:@regnet/feature_extraction/rgb_feature_extraction/rfe-n2/rfe-n2-cccp2/weights"
      }
    }
  }
}
node {
  name: "regnet/feature_extraction/rgb_feature_extraction/rfe-n2/rfe-n2-cccp2/weights"
  op: "VariableV2"
  attr {
    key: "_class"
    value {
      list {
        s: "loc:@regnet/feature_extraction/rgb_feature_extraction/rfe-n2/rfe-n2-cccp2/weights"
      }
    }
  }
  attr {
    key: "container"
    value {
      s: ""
    }
  }
  attr {
    key: "dtype"
    value {
      type: DT_FLOAT
    }
  }
  attr {
    key: "shape"
    value {
      shape {
        dim {
          size: 1
        }
        dim {
          size: 1
        }
        dim {
          size: 256
        }
        dim {
          size: 256
        }
      }
    }
  }
  attr {
    key: "shared_name"
    value {
      s: ""
    }
  }
}
node {
  name: "regnet/feature_extraction/rgb_feature_extraction/rfe-n2/rfe-n2-cccp2/weights/Assign"
  op: "Assign"
  input: "regnet/feature_extraction/rgb_feature_extraction/rfe-n2/rfe-n2-cccp2/weights"
  input: "regnet/feature_extraction/rgb_feature_extraction/rfe-n2/rfe-n2-cccp2/weights/Initializer/random_uniform"
  attr {
    key: "T"
    value {
      type: DT_FLOAT
    }
  }
  attr {
    key: "_class"
    value {
      list {
        s: "loc:@regnet/feature_extraction/rgb_feature_extraction/rfe-n2/rfe-n2-cccp2/weights"
      }
    }
  }
  attr {
    key: "use_locking"
    value {
      b: true
    }
  }
  attr {
    key: "validate_shape"
    value {
      b: true
    }
  }
}
node {
  name: "regnet/feature_extraction/rgb_feature_extraction/rfe-n2/rfe-n2-cccp2/weights/read"
  op: "Identity"
  input: "regnet/feature_extraction/rgb_feature_extraction/rfe-n2/rfe-n2-cccp2/weights"
  attr {
    key: "T"
    value {
      type: DT_FLOAT
    }
  }
  attr {
    key: "_class"
    value {
      list {
        s: "loc:@regnet/feature_extraction/rgb_feature_extraction/rfe-n2/rfe-n2-cccp2/weights"
      }
    }
  }
}
node {
  name: "regnet/feature_extraction/rgb_feature_extraction/rfe-n2/rfe-n2-cccp2/biases/Initializer/zeros"
  op: "Const"
  attr {
    key: "_class"
    value {
      list {
        s: "loc:@regnet/feature_extraction/rgb_feature_extraction/rfe-n2/rfe-n2-cccp2/biases"
      }
    }
  }
  attr {
    key: "dtype"
    value {
      type: DT_FLOAT
    }
  }
  attr {
    key: "value"
    value {
      tensor {
        dtype: DT_FLOAT
        tensor_shape {
          dim {
            size: 256
          }
        }
        float_val: 0.0
      }
    }
  }
}
node {
  name: "regnet/feature_extraction/rgb_feature_extraction/rfe-n2/rfe-n2-cccp2/biases"
  op: "VariableV2"
  attr {
    key: "_class"
    value {
      list {
        s: "loc:@regnet/feature_extraction/rgb_feature_extraction/rfe-n2/rfe-n2-cccp2/biases"
      }
    }
  }
  attr {
    key: "container"
    value {
      s: ""
    }
  }
  attr {
    key: "dtype"
    value {
      type: DT_FLOAT
    }
  }
  attr {
    key: "shape"
    value {
      shape {
        dim {
          size: 256
        }
      }
    }
  }
  attr {
    key: "shared_name"
    value {
      s: ""
    }
  }
}
node {
  name: "regnet/feature_extraction/rgb_feature_extraction/rfe-n2/rfe-n2-cccp2/biases/Assign"
  op: "Assign"
  input: "regnet/feature_extraction/rgb_feature_extraction/rfe-n2/rfe-n2-cccp2/biases"
  input: "regnet/feature_extraction/rgb_feature_extraction/rfe-n2/rfe-n2-cccp2/biases/Initializer/zeros"
  attr {
    key: "T"
    value {
      type: DT_FLOAT
    }
  }
  attr {
    key: "_class"
    value {
      list {
        s: "loc:@regnet/feature_extraction/rgb_feature_extraction/rfe-n2/rfe-n2-cccp2/biases"
      }
    }
  }
  attr {
    key: "use_locking"
    value {
      b: true
    }
  }
  attr {
    key: "validate_shape"
    value {
      b: true
    }
  }
}
node {
  name: "regnet/feature_extraction/rgb_feature_extraction/rfe-n2/rfe-n2-cccp2/biases/read"
  op: "Identity"
  input: "regnet/feature_extraction/rgb_feature_extraction/rfe-n2/rfe-n2-cccp2/biases"
  attr {
    key: "T"
    value {
      type: DT_FLOAT
    }
  }
  attr {
    key: "_class"
    value {
      list {
        s: "loc:@regnet/feature_extraction/rgb_feature_extraction/rfe-n2/rfe-n2-cccp2/biases"
      }
    }
  }
}
node {
  name: "regnet/feature_extraction/rgb_feature_extraction/rfe-n2/rfe-n2-cccp2/dilation_rate"
  op: "Const"
  attr {
    key: "dtype"
    value {
      type: DT_INT32
    }
  }
  attr {
    key: "value"
    value {
      tensor {
        dtype: DT_INT32
        tensor_shape {
          dim {
            size: 2
          }
        }
        tensor_content: "\001\000\000\000\001\000\000\000"
      }
    }
  }
}
node {
  name: "regnet/feature_extraction/rgb_feature_extraction/rfe-n2/rfe-n2-cccp2/Conv2D"
  op: "Conv2D"
  input: "regnet/feature_extraction/rgb_feature_extraction/rfe-n2/rfe-n2-cccp1/Relu"
  input: "regnet/feature_extraction/rgb_feature_extraction/rfe-n2/rfe-n2-cccp2/weights/read"
  attr {
    key: "T"
    value {
      type: DT_FLOAT
    }
  }
  attr {
    key: "data_format"
    value {
      s: "NHWC"
    }
  }
  attr {
    key: "dilations"
    value {
      list {
        i: 1
        i: 1
        i: 1
        i: 1
      }
    }
  }
  attr {
    key: "padding"
    value {
      s: "SAME"
    }
  }
  attr {
    key: "strides"
    value {
      list {
        i: 1
        i: 1
        i: 1
        i: 1
      }
    }
  }
  attr {
    key: "use_cudnn_on_gpu"
    value {
      b: true
    }
  }
}
node {
  name: "regnet/feature_extraction/rgb_feature_extraction/rfe-n2/rfe-n2-cccp2/BiasAdd"
  op: "BiasAdd"
  input: "regnet/feature_extraction/rgb_feature_extraction/rfe-n2/rfe-n2-cccp2/Conv2D"
  input: "regnet/feature_extraction/rgb_feature_extraction/rfe-n2/rfe-n2-cccp2/biases/read"
  attr {
    key: "T"
    value {
      type: DT_FLOAT
    }
  }
  attr {
    key: "data_format"
    value {
      s: "NHWC"
    }
  }
}
node {
  name: "regnet/feature_extraction/rgb_feature_extraction/rfe-n2/rfe-n2-cccp2/Relu"
  op: "Relu"
  input: "regnet/feature_extraction/rgb_feature_extraction/rfe-n2/rfe-n2-cccp2/BiasAdd"
  attr {
    key: "T"
    value {
      type: DT_FLOAT
    }
  }
}
node {
  name: "regnet/feature_extraction/rgb_feature_extraction/rfe-n2/rfe-n2-max/MaxPool"
  op: "MaxPool"
  input: "regnet/feature_extraction/rgb_feature_extraction/rfe-n2/rfe-n2-cccp2/Relu"
  attr {
    key: "T"
    value {
      type: DT_FLOAT
    }
  }
  attr {
    key: "data_format"
    value {
      s: "NHWC"
    }
  }
  attr {
    key: "ksize"
    value {
      list {
        i: 1
        i: 3
        i: 3
        i: 1
      }
    }
  }
  attr {
    key: "padding"
    value {
      s: "SAME"
    }
  }
  attr {
    key: "strides"
    value {
      list {
        i: 1
        i: 2
        i: 2
        i: 1
      }
    }
  }
}
node {
  name: "regnet/feature_extraction/rgb_feature_extraction/rfe-n3/rfe-n3-conv1/weights/Initializer/random_uniform/shape"
  op: "Const"
  attr {
    key: "_class"
    value {
      list {
        s: "loc:@regnet/feature_extraction/rgb_feature_extraction/rfe-n3/rfe-n3-conv1/weights"
      }
    }
  }
  attr {
    key: "dtype"
    value {
      type: DT_INT32
    }
  }
  attr {
    key: "value"
    value {
      tensor {
        dtype: DT_INT32
        tensor_shape {
          dim {
            size: 4
          }
        }
        tensor_content: "\003\000\000\000\003\000\000\000\000\001\000\000\200\001\000\000"
      }
    }
  }
}
node {
  name: "regnet/feature_extraction/rgb_feature_extraction/rfe-n3/rfe-n3-conv1/weights/Initializer/random_uniform/min"
  op: "Const"
  attr {
    key: "_class"
    value {
      list {
        s: "loc:@regnet/feature_extraction/rgb_feature_extraction/rfe-n3/rfe-n3-conv1/weights"
      }
    }
  }
  attr {
    key: "dtype"
    value {
      type: DT_FLOAT
    }
  }
  attr {
    key: "value"
    value {
      tensor {
        dtype: DT_FLOAT
        tensor_shape {
        }
        float_val: -0.03227486088871956
      }
    }
  }
}
node {
  name: "regnet/feature_extraction/rgb_feature_extraction/rfe-n3/rfe-n3-conv1/weights/Initializer/random_uniform/max"
  op: "Const"
  attr {
    key: "_class"
    value {
      list {
        s: "loc:@regnet/feature_extraction/rgb_feature_extraction/rfe-n3/rfe-n3-conv1/weights"
      }
    }
  }
  attr {
    key: "dtype"
    value {
      type: DT_FLOAT
    }
  }
  attr {
    key: "value"
    value {
      tensor {
        dtype: DT_FLOAT
        tensor_shape {
        }
        float_val: 0.03227486088871956
      }
    }
  }
}
node {
  name: "regnet/feature_extraction/rgb_feature_extraction/rfe-n3/rfe-n3-conv1/weights/Initializer/random_uniform/RandomUniform"
  op: "RandomUniform"
  input: "regnet/feature_extraction/rgb_feature_extraction/rfe-n3/rfe-n3-conv1/weights/Initializer/random_uniform/shape"
  attr {
    key: "T"
    value {
      type: DT_INT32
    }
  }
  attr {
    key: "_class"
    value {
      list {
        s: "loc:@regnet/feature_extraction/rgb_feature_extraction/rfe-n3/rfe-n3-conv1/weights"
      }
    }
  }
  attr {
    key: "dtype"
    value {
      type: DT_FLOAT
    }
  }
  attr {
    key: "seed"
    value {
      i: 0
    }
  }
  attr {
    key: "seed2"
    value {
      i: 0
    }
  }
}
node {
  name: "regnet/feature_extraction/rgb_feature_extraction/rfe-n3/rfe-n3-conv1/weights/Initializer/random_uniform/sub"
  op: "Sub"
  input: "regnet/feature_extraction/rgb_feature_extraction/rfe-n3/rfe-n3-conv1/weights/Initializer/random_uniform/max"
  input: "regnet/feature_extraction/rgb_feature_extraction/rfe-n3/rfe-n3-conv1/weights/Initializer/random_uniform/min"
  attr {
    key: "T"
    value {
      type: DT_FLOAT
    }
  }
  attr {
    key: "_class"
    value {
      list {
        s: "loc:@regnet/feature_extraction/rgb_feature_extraction/rfe-n3/rfe-n3-conv1/weights"
      }
    }
  }
}
node {
  name: "regnet/feature_extraction/rgb_feature_extraction/rfe-n3/rfe-n3-conv1/weights/Initializer/random_uniform/mul"
  op: "Mul"
  input: "regnet/feature_extraction/rgb_feature_extraction/rfe-n3/rfe-n3-conv1/weights/Initializer/random_uniform/RandomUniform"
  input: "regnet/feature_extraction/rgb_feature_extraction/rfe-n3/rfe-n3-conv1/weights/Initializer/random_uniform/sub"
  attr {
    key: "T"
    value {
      type: DT_FLOAT
    }
  }
  attr {
    key: "_class"
    value {
      list {
        s: "loc:@regnet/feature_extraction/rgb_feature_extraction/rfe-n3/rfe-n3-conv1/weights"
      }
    }
  }
}
node {
  name: "regnet/feature_extraction/rgb_feature_extraction/rfe-n3/rfe-n3-conv1/weights/Initializer/random_uniform"
  op: "Add"
  input: "regnet/feature_extraction/rgb_feature_extraction/rfe-n3/rfe-n3-conv1/weights/Initializer/random_uniform/mul"
  input: "regnet/feature_extraction/rgb_feature_extraction/rfe-n3/rfe-n3-conv1/weights/Initializer/random_uniform/min"
  attr {
    key: "T"
    value {
      type: DT_FLOAT
    }
  }
  attr {
    key: "_class"
    value {
      list {
        s: "loc:@regnet/feature_extraction/rgb_feature_extraction/rfe-n3/rfe-n3-conv1/weights"
      }
    }
  }
}
node {
  name: "regnet/feature_extraction/rgb_feature_extraction/rfe-n3/rfe-n3-conv1/weights"
  op: "VariableV2"
  attr {
    key: "_class"
    value {
      list {
        s: "loc:@regnet/feature_extraction/rgb_feature_extraction/rfe-n3/rfe-n3-conv1/weights"
      }
    }
  }
  attr {
    key: "container"
    value {
      s: ""
    }
  }
  attr {
    key: "dtype"
    value {
      type: DT_FLOAT
    }
  }
  attr {
    key: "shape"
    value {
      shape {
        dim {
          size: 3
        }
        dim {
          size: 3
        }
        dim {
          size: 256
        }
        dim {
          size: 384
        }
      }
    }
  }
  attr {
    key: "shared_name"
    value {
      s: ""
    }
  }
}
node {
  name: "regnet/feature_extraction/rgb_feature_extraction/rfe-n3/rfe-n3-conv1/weights/Assign"
  op: "Assign"
  input: "regnet/feature_extraction/rgb_feature_extraction/rfe-n3/rfe-n3-conv1/weights"
  input: "regnet/feature_extraction/rgb_feature_extraction/rfe-n3/rfe-n3-conv1/weights/Initializer/random_uniform"
  attr {
    key: "T"
    value {
      type: DT_FLOAT
    }
  }
  attr {
    key: "_class"
    value {
      list {
        s: "loc:@regnet/feature_extraction/rgb_feature_extraction/rfe-n3/rfe-n3-conv1/weights"
      }
    }
  }
  attr {
    key: "use_locking"
    value {
      b: true
    }
  }
  attr {
    key: "validate_shape"
    value {
      b: true
    }
  }
}
node {
  name: "regnet/feature_extraction/rgb_feature_extraction/rfe-n3/rfe-n3-conv1/weights/read"
  op: "Identity"
  input: "regnet/feature_extraction/rgb_feature_extraction/rfe-n3/rfe-n3-conv1/weights"
  attr {
    key: "T"
    value {
      type: DT_FLOAT
    }
  }
  attr {
    key: "_class"
    value {
      list {
        s: "loc:@regnet/feature_extraction/rgb_feature_extraction/rfe-n3/rfe-n3-conv1/weights"
      }
    }
  }
}
node {
  name: "regnet/feature_extraction/rgb_feature_extraction/rfe-n3/rfe-n3-conv1/biases/Initializer/zeros"
  op: "Const"
  attr {
    key: "_class"
    value {
      list {
        s: "loc:@regnet/feature_extraction/rgb_feature_extraction/rfe-n3/rfe-n3-conv1/biases"
      }
    }
  }
  attr {
    key: "dtype"
    value {
      type: DT_FLOAT
    }
  }
  attr {
    key: "value"
    value {
      tensor {
        dtype: DT_FLOAT
        tensor_shape {
          dim {
            size: 384
          }
        }
        float_val: 0.0
      }
    }
  }
}
node {
  name: "regnet/feature_extraction/rgb_feature_extraction/rfe-n3/rfe-n3-conv1/biases"
  op: "VariableV2"
  attr {
    key: "_class"
    value {
      list {
        s: "loc:@regnet/feature_extraction/rgb_feature_extraction/rfe-n3/rfe-n3-conv1/biases"
      }
    }
  }
  attr {
    key: "container"
    value {
      s: ""
    }
  }
  attr {
    key: "dtype"
    value {
      type: DT_FLOAT
    }
  }
  attr {
    key: "shape"
    value {
      shape {
        dim {
          size: 384
        }
      }
    }
  }
  attr {
    key: "shared_name"
    value {
      s: ""
    }
  }
}
node {
  name: "regnet/feature_extraction/rgb_feature_extraction/rfe-n3/rfe-n3-conv1/biases/Assign"
  op: "Assign"
  input: "regnet/feature_extraction/rgb_feature_extraction/rfe-n3/rfe-n3-conv1/biases"
  input: "regnet/feature_extraction/rgb_feature_extraction/rfe-n3/rfe-n3-conv1/biases/Initializer/zeros"
  attr {
    key: "T"
    value {
      type: DT_FLOAT
    }
  }
  attr {
    key: "_class"
    value {
      list {
        s: "loc:@regnet/feature_extraction/rgb_feature_extraction/rfe-n3/rfe-n3-conv1/biases"
      }
    }
  }
  attr {
    key: "use_locking"
    value {
      b: true
    }
  }
  attr {
    key: "validate_shape"
    value {
      b: true
    }
  }
}
node {
  name: "regnet/feature_extraction/rgb_feature_extraction/rfe-n3/rfe-n3-conv1/biases/read"
  op: "Identity"
  input: "regnet/feature_extraction/rgb_feature_extraction/rfe-n3/rfe-n3-conv1/biases"
  attr {
    key: "T"
    value {
      type: DT_FLOAT
    }
  }
  attr {
    key: "_class"
    value {
      list {
        s: "loc:@regnet/feature_extraction/rgb_feature_extraction/rfe-n3/rfe-n3-conv1/biases"
      }
    }
  }
}
node {
  name: "regnet/feature_extraction/rgb_feature_extraction/rfe-n3/rfe-n3-conv1/dilation_rate"
  op: "Const"
  attr {
    key: "dtype"
    value {
      type: DT_INT32
    }
  }
  attr {
    key: "value"
    value {
      tensor {
        dtype: DT_INT32
        tensor_shape {
          dim {
            size: 2
          }
        }
        tensor_content: "\001\000\000\000\001\000\000\000"
      }
    }
  }
}
node {
  name: "regnet/feature_extraction/rgb_feature_extraction/rfe-n3/rfe-n3-conv1/Conv2D"
  op: "Conv2D"
  input: "regnet/feature_extraction/rgb_feature_extraction/rfe-n2/rfe-n2-max/MaxPool"
  input: "regnet/feature_extraction/rgb_feature_extraction/rfe-n3/rfe-n3-conv1/weights/read"
  attr {
    key: "T"
    value {
      type: DT_FLOAT
    }
  }
  attr {
    key: "data_format"
    value {
      s: "NHWC"
    }
  }
  attr {
    key: "dilations"
    value {
      list {
        i: 1
        i: 1
        i: 1
        i: 1
      }
    }
  }
  attr {
    key: "padding"
    value {
      s: "SAME"
    }
  }
  attr {
    key: "strides"
    value {
      list {
        i: 1
        i: 1
        i: 1
        i: 1
      }
    }
  }
  attr {
    key: "use_cudnn_on_gpu"
    value {
      b: true
    }
  }
}
node {
  name: "regnet/feature_extraction/rgb_feature_extraction/rfe-n3/rfe-n3-conv1/BiasAdd"
  op: "BiasAdd"
  input: "regnet/feature_extraction/rgb_feature_extraction/rfe-n3/rfe-n3-conv1/Conv2D"
  input: "regnet/feature_extraction/rgb_feature_extraction/rfe-n3/rfe-n3-conv1/biases/read"
  attr {
    key: "T"
    value {
      type: DT_FLOAT
    }
  }
  attr {
    key: "data_format"
    value {
      s: "NHWC"
    }
  }
}
node {
  name: "regnet/feature_extraction/rgb_feature_extraction/rfe-n3/rfe-n3-conv1/Relu"
  op: "Relu"
  input: "regnet/feature_extraction/rgb_feature_extraction/rfe-n3/rfe-n3-conv1/BiasAdd"
  attr {
    key: "T"
    value {
      type: DT_FLOAT
    }
  }
}
node {
  name: "regnet/feature_extraction/rgb_feature_extraction/rfe-n3/rfe-n3-cccp1/weights/Initializer/random_uniform/shape"
  op: "Const"
  attr {
    key: "_class"
    value {
      list {
        s: "loc:@regnet/feature_extraction/rgb_feature_extraction/rfe-n3/rfe-n3-cccp1/weights"
      }
    }
  }
  attr {
    key: "dtype"
    value {
      type: DT_INT32
    }
  }
  attr {
    key: "value"
    value {
      tensor {
        dtype: DT_INT32
        tensor_shape {
          dim {
            size: 4
          }
        }
        tensor_content: "\001\000\000\000\001\000\000\000\200\001\000\000\200\001\000\000"
      }
    }
  }
}
node {
  name: "regnet/feature_extraction/rgb_feature_extraction/rfe-n3/rfe-n3-cccp1/weights/Initializer/random_uniform/min"
  op: "Const"
  attr {
    key: "_class"
    value {
      list {
        s: "loc:@regnet/feature_extraction/rgb_feature_extraction/rfe-n3/rfe-n3-cccp1/weights"
      }
    }
  }
  attr {
    key: "dtype"
    value {
      type: DT_FLOAT
    }
  }
  attr {
    key: "value"
    value {
      tensor {
        dtype: DT_FLOAT
        tensor_shape {
        }
        float_val: -0.0883883461356163
      }
    }
  }
}
node {
  name: "regnet/feature_extraction/rgb_feature_extraction/rfe-n3/rfe-n3-cccp1/weights/Initializer/random_uniform/max"
  op: "Const"
  attr {
    key: "_class"
    value {
      list {
        s: "loc:@regnet/feature_extraction/rgb_feature_extraction/rfe-n3/rfe-n3-cccp1/weights"
      }
    }
  }
  attr {
    key: "dtype"
    value {
      type: DT_FLOAT
    }
  }
  attr {
    key: "value"
    value {
      tensor {
        dtype: DT_FLOAT
        tensor_shape {
        }
        float_val: 0.0883883461356163
      }
    }
  }
}
node {
  name: "regnet/feature_extraction/rgb_feature_extraction/rfe-n3/rfe-n3-cccp1/weights/Initializer/random_uniform/RandomUniform"
  op: "RandomUniform"
  input: "regnet/feature_extraction/rgb_feature_extraction/rfe-n3/rfe-n3-cccp1/weights/Initializer/random_uniform/shape"
  attr {
    key: "T"
    value {
      type: DT_INT32
    }
  }
  attr {
    key: "_class"
    value {
      list {
        s: "loc:@regnet/feature_extraction/rgb_feature_extraction/rfe-n3/rfe-n3-cccp1/weights"
      }
    }
  }
  attr {
    key: "dtype"
    value {
      type: DT_FLOAT
    }
  }
  attr {
    key: "seed"
    value {
      i: 0
    }
  }
  attr {
    key: "seed2"
    value {
      i: 0
    }
  }
}
node {
  name: "regnet/feature_extraction/rgb_feature_extraction/rfe-n3/rfe-n3-cccp1/weights/Initializer/random_uniform/sub"
  op: "Sub"
  input: "regnet/feature_extraction/rgb_feature_extraction/rfe-n3/rfe-n3-cccp1/weights/Initializer/random_uniform/max"
  input: "regnet/feature_extraction/rgb_feature_extraction/rfe-n3/rfe-n3-cccp1/weights/Initializer/random_uniform/min"
  attr {
    key: "T"
    value {
      type: DT_FLOAT
    }
  }
  attr {
    key: "_class"
    value {
      list {
        s: "loc:@regnet/feature_extraction/rgb_feature_extraction/rfe-n3/rfe-n3-cccp1/weights"
      }
    }
  }
}
node {
  name: "regnet/feature_extraction/rgb_feature_extraction/rfe-n3/rfe-n3-cccp1/weights/Initializer/random_uniform/mul"
  op: "Mul"
  input: "regnet/feature_extraction/rgb_feature_extraction/rfe-n3/rfe-n3-cccp1/weights/Initializer/random_uniform/RandomUniform"
  input: "regnet/feature_extraction/rgb_feature_extraction/rfe-n3/rfe-n3-cccp1/weights/Initializer/random_uniform/sub"
  attr {
    key: "T"
    value {
      type: DT_FLOAT
    }
  }
  attr {
    key: "_class"
    value {
      list {
        s: "loc:@regnet/feature_extraction/rgb_feature_extraction/rfe-n3/rfe-n3-cccp1/weights"
      }
    }
  }
}
node {
  name: "regnet/feature_extraction/rgb_feature_extraction/rfe-n3/rfe-n3-cccp1/weights/Initializer/random_uniform"
  op: "Add"
  input: "regnet/feature_extraction/rgb_feature_extraction/rfe-n3/rfe-n3-cccp1/weights/Initializer/random_uniform/mul"
  input: "regnet/feature_extraction/rgb_feature_extraction/rfe-n3/rfe-n3-cccp1/weights/Initializer/random_uniform/min"
  attr {
    key: "T"
    value {
      type: DT_FLOAT
    }
  }
  attr {
    key: "_class"
    value {
      list {
        s: "loc:@regnet/feature_extraction/rgb_feature_extraction/rfe-n3/rfe-n3-cccp1/weights"
      }
    }
  }
}
node {
  name: "regnet/feature_extraction/rgb_feature_extraction/rfe-n3/rfe-n3-cccp1/weights"
  op: "VariableV2"
  attr {
    key: "_class"
    value {
      list {
        s: "loc:@regnet/feature_extraction/rgb_feature_extraction/rfe-n3/rfe-n3-cccp1/weights"
      }
    }
  }
  attr {
    key: "container"
    value {
      s: ""
    }
  }
  attr {
    key: "dtype"
    value {
      type: DT_FLOAT
    }
  }
  attr {
    key: "shape"
    value {
      shape {
        dim {
          size: 1
        }
        dim {
          size: 1
        }
        dim {
          size: 384
        }
        dim {
          size: 384
        }
      }
    }
  }
  attr {
    key: "shared_name"
    value {
      s: ""
    }
  }
}
node {
  name: "regnet/feature_extraction/rgb_feature_extraction/rfe-n3/rfe-n3-cccp1/weights/Assign"
  op: "Assign"
  input: "regnet/feature_extraction/rgb_feature_extraction/rfe-n3/rfe-n3-cccp1/weights"
  input: "regnet/feature_extraction/rgb_feature_extraction/rfe-n3/rfe-n3-cccp1/weights/Initializer/random_uniform"
  attr {
    key: "T"
    value {
      type: DT_FLOAT
    }
  }
  attr {
    key: "_class"
    value {
      list {
        s: "loc:@regnet/feature_extraction/rgb_feature_extraction/rfe-n3/rfe-n3-cccp1/weights"
      }
    }
  }
  attr {
    key: "use_locking"
    value {
      b: true
    }
  }
  attr {
    key: "validate_shape"
    value {
      b: true
    }
  }
}
node {
  name: "regnet/feature_extraction/rgb_feature_extraction/rfe-n3/rfe-n3-cccp1/weights/read"
  op: "Identity"
  input: "regnet/feature_extraction/rgb_feature_extraction/rfe-n3/rfe-n3-cccp1/weights"
  attr {
    key: "T"
    value {
      type: DT_FLOAT
    }
  }
  attr {
    key: "_class"
    value {
      list {
        s: "loc:@regnet/feature_extraction/rgb_feature_extraction/rfe-n3/rfe-n3-cccp1/weights"
      }
    }
  }
}
node {
  name: "regnet/feature_extraction/rgb_feature_extraction/rfe-n3/rfe-n3-cccp1/biases/Initializer/zeros"
  op: "Const"
  attr {
    key: "_class"
    value {
      list {
        s: "loc:@regnet/feature_extraction/rgb_feature_extraction/rfe-n3/rfe-n3-cccp1/biases"
      }
    }
  }
  attr {
    key: "dtype"
    value {
      type: DT_FLOAT
    }
  }
  attr {
    key: "value"
    value {
      tensor {
        dtype: DT_FLOAT
        tensor_shape {
          dim {
            size: 384
          }
        }
        float_val: 0.0
      }
    }
  }
}
node {
  name: "regnet/feature_extraction/rgb_feature_extraction/rfe-n3/rfe-n3-cccp1/biases"
  op: "VariableV2"
  attr {
    key: "_class"
    value {
      list {
        s: "loc:@regnet/feature_extraction/rgb_feature_extraction/rfe-n3/rfe-n3-cccp1/biases"
      }
    }
  }
  attr {
    key: "container"
    value {
      s: ""
    }
  }
  attr {
    key: "dtype"
    value {
      type: DT_FLOAT
    }
  }
  attr {
    key: "shape"
    value {
      shape {
        dim {
          size: 384
        }
      }
    }
  }
  attr {
    key: "shared_name"
    value {
      s: ""
    }
  }
}
node {
  name: "regnet/feature_extraction/rgb_feature_extraction/rfe-n3/rfe-n3-cccp1/biases/Assign"
  op: "Assign"
  input: "regnet/feature_extraction/rgb_feature_extraction/rfe-n3/rfe-n3-cccp1/biases"
  input: "regnet/feature_extraction/rgb_feature_extraction/rfe-n3/rfe-n3-cccp1/biases/Initializer/zeros"
  attr {
    key: "T"
    value {
      type: DT_FLOAT
    }
  }
  attr {
    key: "_class"
    value {
      list {
        s: "loc:@regnet/feature_extraction/rgb_feature_extraction/rfe-n3/rfe-n3-cccp1/biases"
      }
    }
  }
  attr {
    key: "use_locking"
    value {
      b: true
    }
  }
  attr {
    key: "validate_shape"
    value {
      b: true
    }
  }
}
node {
  name: "regnet/feature_extraction/rgb_feature_extraction/rfe-n3/rfe-n3-cccp1/biases/read"
  op: "Identity"
  input: "regnet/feature_extraction/rgb_feature_extraction/rfe-n3/rfe-n3-cccp1/biases"
  attr {
    key: "T"
    value {
      type: DT_FLOAT
    }
  }
  attr {
    key: "_class"
    value {
      list {
        s: "loc:@regnet/feature_extraction/rgb_feature_extraction/rfe-n3/rfe-n3-cccp1/biases"
      }
    }
  }
}
node {
  name: "regnet/feature_extraction/rgb_feature_extraction/rfe-n3/rfe-n3-cccp1/dilation_rate"
  op: "Const"
  attr {
    key: "dtype"
    value {
      type: DT_INT32
    }
  }
  attr {
    key: "value"
    value {
      tensor {
        dtype: DT_INT32
        tensor_shape {
          dim {
            size: 2
          }
        }
        tensor_content: "\001\000\000\000\001\000\000\000"
      }
    }
  }
}
node {
  name: "regnet/feature_extraction/rgb_feature_extraction/rfe-n3/rfe-n3-cccp1/Conv2D"
  op: "Conv2D"
  input: "regnet/feature_extraction/rgb_feature_extraction/rfe-n3/rfe-n3-conv1/Relu"
  input: "regnet/feature_extraction/rgb_feature_extraction/rfe-n3/rfe-n3-cccp1/weights/read"
  attr {
    key: "T"
    value {
      type: DT_FLOAT
    }
  }
  attr {
    key: "data_format"
    value {
      s: "NHWC"
    }
  }
  attr {
    key: "dilations"
    value {
      list {
        i: 1
        i: 1
        i: 1
        i: 1
      }
    }
  }
  attr {
    key: "padding"
    value {
      s: "SAME"
    }
  }
  attr {
    key: "strides"
    value {
      list {
        i: 1
        i: 1
        i: 1
        i: 1
      }
    }
  }
  attr {
    key: "use_cudnn_on_gpu"
    value {
      b: true
    }
  }
}
node {
  name: "regnet/feature_extraction/rgb_feature_extraction/rfe-n3/rfe-n3-cccp1/BiasAdd"
  op: "BiasAdd"
  input: "regnet/feature_extraction/rgb_feature_extraction/rfe-n3/rfe-n3-cccp1/Conv2D"
  input: "regnet/feature_extraction/rgb_feature_extraction/rfe-n3/rfe-n3-cccp1/biases/read"
  attr {
    key: "T"
    value {
      type: DT_FLOAT
    }
  }
  attr {
    key: "data_format"
    value {
      s: "NHWC"
    }
  }
}
node {
  name: "regnet/feature_extraction/rgb_feature_extraction/rfe-n3/rfe-n3-cccp1/Relu"
  op: "Relu"
  input: "regnet/feature_extraction/rgb_feature_extraction/rfe-n3/rfe-n3-cccp1/BiasAdd"
  attr {
    key: "T"
    value {
      type: DT_FLOAT
    }
  }
}
node {
  name: "regnet/feature_extraction/rgb_feature_extraction/rfe-n3/rfe-n3-cccp2/weights/Initializer/random_uniform/shape"
  op: "Const"
  attr {
    key: "_class"
    value {
      list {
        s: "loc:@regnet/feature_extraction/rgb_feature_extraction/rfe-n3/rfe-n3-cccp2/weights"
      }
    }
  }
  attr {
    key: "dtype"
    value {
      type: DT_INT32
    }
  }
  attr {
    key: "value"
    value {
      tensor {
        dtype: DT_INT32
        tensor_shape {
          dim {
            size: 4
          }
        }
        tensor_content: "\001\000\000\000\001\000\000\000\200\001\000\000\200\001\000\000"
      }
    }
  }
}
node {
  name: "regnet/feature_extraction/rgb_feature_extraction/rfe-n3/rfe-n3-cccp2/weights/Initializer/random_uniform/min"
  op: "Const"
  attr {
    key: "_class"
    value {
      list {
        s: "loc:@regnet/feature_extraction/rgb_feature_extraction/rfe-n3/rfe-n3-cccp2/weights"
      }
    }
  }
  attr {
    key: "dtype"
    value {
      type: DT_FLOAT
    }
  }
  attr {
    key: "value"
    value {
      tensor {
        dtype: DT_FLOAT
        tensor_shape {
        }
        float_val: -0.0883883461356163
      }
    }
  }
}
node {
  name: "regnet/feature_extraction/rgb_feature_extraction/rfe-n3/rfe-n3-cccp2/weights/Initializer/random_uniform/max"
  op: "Const"
  attr {
    key: "_class"
    value {
      list {
        s: "loc:@regnet/feature_extraction/rgb_feature_extraction/rfe-n3/rfe-n3-cccp2/weights"
      }
    }
  }
  attr {
    key: "dtype"
    value {
      type: DT_FLOAT
    }
  }
  attr {
    key: "value"
    value {
      tensor {
        dtype: DT_FLOAT
        tensor_shape {
        }
        float_val: 0.0883883461356163
      }
    }
  }
}
node {
  name: "regnet/feature_extraction/rgb_feature_extraction/rfe-n3/rfe-n3-cccp2/weights/Initializer/random_uniform/RandomUniform"
  op: "RandomUniform"
  input: "regnet/feature_extraction/rgb_feature_extraction/rfe-n3/rfe-n3-cccp2/weights/Initializer/random_uniform/shape"
  attr {
    key: "T"
    value {
      type: DT_INT32
    }
  }
  attr {
    key: "_class"
    value {
      list {
        s: "loc:@regnet/feature_extraction/rgb_feature_extraction/rfe-n3/rfe-n3-cccp2/weights"
      }
    }
  }
  attr {
    key: "dtype"
    value {
      type: DT_FLOAT
    }
  }
  attr {
    key: "seed"
    value {
      i: 0
    }
  }
  attr {
    key: "seed2"
    value {
      i: 0
    }
  }
}
node {
  name: "regnet/feature_extraction/rgb_feature_extraction/rfe-n3/rfe-n3-cccp2/weights/Initializer/random_uniform/sub"
  op: "Sub"
  input: "regnet/feature_extraction/rgb_feature_extraction/rfe-n3/rfe-n3-cccp2/weights/Initializer/random_uniform/max"
  input: "regnet/feature_extraction/rgb_feature_extraction/rfe-n3/rfe-n3-cccp2/weights/Initializer/random_uniform/min"
  attr {
    key: "T"
    value {
      type: DT_FLOAT
    }
  }
  attr {
    key: "_class"
    value {
      list {
        s: "loc:@regnet/feature_extraction/rgb_feature_extraction/rfe-n3/rfe-n3-cccp2/weights"
      }
    }
  }
}
node {
  name: "regnet/feature_extraction/rgb_feature_extraction/rfe-n3/rfe-n3-cccp2/weights/Initializer/random_uniform/mul"
  op: "Mul"
  input: "regnet/feature_extraction/rgb_feature_extraction/rfe-n3/rfe-n3-cccp2/weights/Initializer/random_uniform/RandomUniform"
  input: "regnet/feature_extraction/rgb_feature_extraction/rfe-n3/rfe-n3-cccp2/weights/Initializer/random_uniform/sub"
  attr {
    key: "T"
    value {
      type: DT_FLOAT
    }
  }
  attr {
    key: "_class"
    value {
      list {
        s: "loc:@regnet/feature_extraction/rgb_feature_extraction/rfe-n3/rfe-n3-cccp2/weights"
      }
    }
  }
}
node {
  name: "regnet/feature_extraction/rgb_feature_extraction/rfe-n3/rfe-n3-cccp2/weights/Initializer/random_uniform"
  op: "Add"
  input: "regnet/feature_extraction/rgb_feature_extraction/rfe-n3/rfe-n3-cccp2/weights/Initializer/random_uniform/mul"
  input: "regnet/feature_extraction/rgb_feature_extraction/rfe-n3/rfe-n3-cccp2/weights/Initializer/random_uniform/min"
  attr {
    key: "T"
    value {
      type: DT_FLOAT
    }
  }
  attr {
    key: "_class"
    value {
      list {
        s: "loc:@regnet/feature_extraction/rgb_feature_extraction/rfe-n3/rfe-n3-cccp2/weights"
      }
    }
  }
}
node {
  name: "regnet/feature_extraction/rgb_feature_extraction/rfe-n3/rfe-n3-cccp2/weights"
  op: "VariableV2"
  attr {
    key: "_class"
    value {
      list {
        s: "loc:@regnet/feature_extraction/rgb_feature_extraction/rfe-n3/rfe-n3-cccp2/weights"
      }
    }
  }
  attr {
    key: "container"
    value {
      s: ""
    }
  }
  attr {
    key: "dtype"
    value {
      type: DT_FLOAT
    }
  }
  attr {
    key: "shape"
    value {
      shape {
        dim {
          size: 1
        }
        dim {
          size: 1
        }
        dim {
          size: 384
        }
        dim {
          size: 384
        }
      }
    }
  }
  attr {
    key: "shared_name"
    value {
      s: ""
    }
  }
}
node {
  name: "regnet/feature_extraction/rgb_feature_extraction/rfe-n3/rfe-n3-cccp2/weights/Assign"
  op: "Assign"
  input: "regnet/feature_extraction/rgb_feature_extraction/rfe-n3/rfe-n3-cccp2/weights"
  input: "regnet/feature_extraction/rgb_feature_extraction/rfe-n3/rfe-n3-cccp2/weights/Initializer/random_uniform"
  attr {
    key: "T"
    value {
      type: DT_FLOAT
    }
  }
  attr {
    key: "_class"
    value {
      list {
        s: "loc:@regnet/feature_extraction/rgb_feature_extraction/rfe-n3/rfe-n3-cccp2/weights"
      }
    }
  }
  attr {
    key: "use_locking"
    value {
      b: true
    }
  }
  attr {
    key: "validate_shape"
    value {
      b: true
    }
  }
}
node {
  name: "regnet/feature_extraction/rgb_feature_extraction/rfe-n3/rfe-n3-cccp2/weights/read"
  op: "Identity"
  input: "regnet/feature_extraction/rgb_feature_extraction/rfe-n3/rfe-n3-cccp2/weights"
  attr {
    key: "T"
    value {
      type: DT_FLOAT
    }
  }
  attr {
    key: "_class"
    value {
      list {
        s: "loc:@regnet/feature_extraction/rgb_feature_extraction/rfe-n3/rfe-n3-cccp2/weights"
      }
    }
  }
}
node {
  name: "regnet/feature_extraction/rgb_feature_extraction/rfe-n3/rfe-n3-cccp2/biases/Initializer/zeros"
  op: "Const"
  attr {
    key: "_class"
    value {
      list {
        s: "loc:@regnet/feature_extraction/rgb_feature_extraction/rfe-n3/rfe-n3-cccp2/biases"
      }
    }
  }
  attr {
    key: "dtype"
    value {
      type: DT_FLOAT
    }
  }
  attr {
    key: "value"
    value {
      tensor {
        dtype: DT_FLOAT
        tensor_shape {
          dim {
            size: 384
          }
        }
        float_val: 0.0
      }
    }
  }
}
node {
  name: "regnet/feature_extraction/rgb_feature_extraction/rfe-n3/rfe-n3-cccp2/biases"
  op: "VariableV2"
  attr {
    key: "_class"
    value {
      list {
        s: "loc:@regnet/feature_extraction/rgb_feature_extraction/rfe-n3/rfe-n3-cccp2/biases"
      }
    }
  }
  attr {
    key: "container"
    value {
      s: ""
    }
  }
  attr {
    key: "dtype"
    value {
      type: DT_FLOAT
    }
  }
  attr {
    key: "shape"
    value {
      shape {
        dim {
          size: 384
        }
      }
    }
  }
  attr {
    key: "shared_name"
    value {
      s: ""
    }
  }
}
node {
  name: "regnet/feature_extraction/rgb_feature_extraction/rfe-n3/rfe-n3-cccp2/biases/Assign"
  op: "Assign"
  input: "regnet/feature_extraction/rgb_feature_extraction/rfe-n3/rfe-n3-cccp2/biases"
  input: "regnet/feature_extraction/rgb_feature_extraction/rfe-n3/rfe-n3-cccp2/biases/Initializer/zeros"
  attr {
    key: "T"
    value {
      type: DT_FLOAT
    }
  }
  attr {
    key: "_class"
    value {
      list {
        s: "loc:@regnet/feature_extraction/rgb_feature_extraction/rfe-n3/rfe-n3-cccp2/biases"
      }
    }
  }
  attr {
    key: "use_locking"
    value {
      b: true
    }
  }
  attr {
    key: "validate_shape"
    value {
      b: true
    }
  }
}
node {
  name: "regnet/feature_extraction/rgb_feature_extraction/rfe-n3/rfe-n3-cccp2/biases/read"
  op: "Identity"
  input: "regnet/feature_extraction/rgb_feature_extraction/rfe-n3/rfe-n3-cccp2/biases"
  attr {
    key: "T"
    value {
      type: DT_FLOAT
    }
  }
  attr {
    key: "_class"
    value {
      list {
        s: "loc:@regnet/feature_extraction/rgb_feature_extraction/rfe-n3/rfe-n3-cccp2/biases"
      }
    }
  }
}
node {
  name: "regnet/feature_extraction/rgb_feature_extraction/rfe-n3/rfe-n3-cccp2/dilation_rate"
  op: "Const"
  attr {
    key: "dtype"
    value {
      type: DT_INT32
    }
  }
  attr {
    key: "value"
    value {
      tensor {
        dtype: DT_INT32
        tensor_shape {
          dim {
            size: 2
          }
        }
        tensor_content: "\001\000\000\000\001\000\000\000"
      }
    }
  }
}
node {
  name: "regnet/feature_extraction/rgb_feature_extraction/rfe-n3/rfe-n3-cccp2/Conv2D"
  op: "Conv2D"
  input: "regnet/feature_extraction/rgb_feature_extraction/rfe-n3/rfe-n3-cccp1/Relu"
  input: "regnet/feature_extraction/rgb_feature_extraction/rfe-n3/rfe-n3-cccp2/weights/read"
  attr {
    key: "T"
    value {
      type: DT_FLOAT
    }
  }
  attr {
    key: "data_format"
    value {
      s: "NHWC"
    }
  }
  attr {
    key: "dilations"
    value {
      list {
        i: 1
        i: 1
        i: 1
        i: 1
      }
    }
  }
  attr {
    key: "padding"
    value {
      s: "SAME"
    }
  }
  attr {
    key: "strides"
    value {
      list {
        i: 1
        i: 1
        i: 1
        i: 1
      }
    }
  }
  attr {
    key: "use_cudnn_on_gpu"
    value {
      b: true
    }
  }
}
node {
  name: "regnet/feature_extraction/rgb_feature_extraction/rfe-n3/rfe-n3-cccp2/BiasAdd"
  op: "BiasAdd"
  input: "regnet/feature_extraction/rgb_feature_extraction/rfe-n3/rfe-n3-cccp2/Conv2D"
  input: "regnet/feature_extraction/rgb_feature_extraction/rfe-n3/rfe-n3-cccp2/biases/read"
  attr {
    key: "T"
    value {
      type: DT_FLOAT
    }
  }
  attr {
    key: "data_format"
    value {
      s: "NHWC"
    }
  }
}
node {
  name: "regnet/feature_extraction/rgb_feature_extraction/rfe-n3/rfe-n3-cccp2/Relu"
  op: "Relu"
  input: "regnet/feature_extraction/rgb_feature_extraction/rfe-n3/rfe-n3-cccp2/BiasAdd"
  attr {
    key: "T"
    value {
      type: DT_FLOAT
    }
  }
}
node {
  name: "regnet/feature_extraction/rgb_feature_extraction/rfe-n3/rfe-n3-max/MaxPool"
  op: "MaxPool"
  input: "regnet/feature_extraction/rgb_feature_extraction/rfe-n3/rfe-n3-cccp2/Relu"
  attr {
    key: "T"
    value {
      type: DT_FLOAT
    }
  }
  attr {
    key: "data_format"
    value {
      s: "NHWC"
    }
  }
  attr {
    key: "ksize"
    value {
      list {
        i: 1
        i: 3
        i: 3
        i: 1
      }
    }
  }
  attr {
    key: "padding"
    value {
      s: "SAME"
    }
  }
  attr {
    key: "strides"
    value {
      list {
        i: 1
        i: 2
        i: 2
        i: 1
      }
    }
  }
}
node {
  name: "regnet/feature_extraction/depth_feature_extraction/dfe-pool1/MaxPool"
  op: "MaxPool"
  input: "depth_in"
  attr {
    key: "T"
    value {
      type: DT_FLOAT
    }
  }
  attr {
    key: "data_format"
    value {
      s: "NHWC"
    }
  }
  attr {
    key: "ksize"
    value {
      list {
        i: 1
        i: 3
        i: 3
        i: 1
      }
    }
  }
  attr {
    key: "padding"
    value {
      s: "SAME"
    }
  }
  attr {
    key: "strides"
    value {
      list {
        i: 1
        i: 1
        i: 1
        i: 1
      }
    }
  }
}
node {
  name: "regnet/feature_extraction/depth_feature_extraction/dfe-pool2/MaxPool"
  op: "MaxPool"
  input: "regnet/feature_extraction/depth_feature_extraction/dfe-pool1/MaxPool"
  attr {
    key: "T"
    value {
      type: DT_FLOAT
    }
  }
  attr {
    key: "data_format"
    value {
      s: "NHWC"
    }
  }
  attr {
    key: "ksize"
    value {
      list {
        i: 1
        i: 3
        i: 3
        i: 1
      }
    }
  }
  attr {
    key: "padding"
    value {
      s: "SAME"
    }
  }
  attr {
    key: "strides"
    value {
      list {
        i: 1
        i: 1
        i: 1
        i: 1
      }
    }
  }
}
node {
  name: "regnet/feature_extraction/depth_feature_extraction/dfe-n1/dfe-n1-conv1/weights/Initializer/random_uniform/shape"
  op: "Const"
  attr {
    key: "_class"
    value {
      list {
        s: "loc:@regnet/feature_extraction/depth_feature_extraction/dfe-n1/dfe-n1-conv1/weights"
      }
    }
  }
  attr {
    key: "dtype"
    value {
      type: DT_INT32
    }
  }
  attr {
    key: "value"
    value {
      tensor {
        dtype: DT_INT32
        tensor_shape {
          dim {
            size: 4
          }
        }
        tensor_content: "\013\000\000\000\013\000\000\000\001\000\000\0000\000\000\000"
      }
    }
  }
}
node {
  name: "regnet/feature_extraction/depth_feature_extraction/dfe-n1/dfe-n1-conv1/weights/Initializer/random_uniform/min"
  op: "Const"
  attr {
    key: "_class"
    value {
      list {
        s: "loc:@regnet/feature_extraction/depth_feature_extraction/dfe-n1/dfe-n1-conv1/weights"
      }
    }
  }
  attr {
    key: "dtype"
    value {
      type: DT_FLOAT
    }
  }
  attr {
    key: "value"
    value {
      tensor {
        dtype: DT_FLOAT
        tensor_shape {
        }
        float_val: -0.03181155398488045
      }
    }
  }
}
node {
  name: "regnet/feature_extraction/depth_feature_extraction/dfe-n1/dfe-n1-conv1/weights/Initializer/random_uniform/max"
  op: "Const"
  attr {
    key: "_class"
    value {
      list {
        s: "loc:@regnet/feature_extraction/depth_feature_extraction/dfe-n1/dfe-n1-conv1/weights"
      }
    }
  }
  attr {
    key: "dtype"
    value {
      type: DT_FLOAT
    }
  }
  attr {
    key: "value"
    value {
      tensor {
        dtype: DT_FLOAT
        tensor_shape {
        }
        float_val: 0.03181155398488045
      }
    }
  }
}
node {
  name: "regnet/feature_extraction/depth_feature_extraction/dfe-n1/dfe-n1-conv1/weights/Initializer/random_uniform/RandomUniform"
  op: "RandomUniform"
  input: "regnet/feature_extraction/depth_feature_extraction/dfe-n1/dfe-n1-conv1/weights/Initializer/random_uniform/shape"
  attr {
    key: "T"
    value {
      type: DT_INT32
    }
  }
  attr {
    key: "_class"
    value {
      list {
        s: "loc:@regnet/feature_extraction/depth_feature_extraction/dfe-n1/dfe-n1-conv1/weights"
      }
    }
  }
  attr {
    key: "dtype"
    value {
      type: DT_FLOAT
    }
  }
  attr {
    key: "seed"
    value {
      i: 0
    }
  }
  attr {
    key: "seed2"
    value {
      i: 0
    }
  }
}
node {
  name: "regnet/feature_extraction/depth_feature_extraction/dfe-n1/dfe-n1-conv1/weights/Initializer/random_uniform/sub"
  op: "Sub"
  input: "regnet/feature_extraction/depth_feature_extraction/dfe-n1/dfe-n1-conv1/weights/Initializer/random_uniform/max"
  input: "regnet/feature_extraction/depth_feature_extraction/dfe-n1/dfe-n1-conv1/weights/Initializer/random_uniform/min"
  attr {
    key: "T"
    value {
      type: DT_FLOAT
    }
  }
  attr {
    key: "_class"
    value {
      list {
        s: "loc:@regnet/feature_extraction/depth_feature_extraction/dfe-n1/dfe-n1-conv1/weights"
      }
    }
  }
}
node {
  name: "regnet/feature_extraction/depth_feature_extraction/dfe-n1/dfe-n1-conv1/weights/Initializer/random_uniform/mul"
  op: "Mul"
  input: "regnet/feature_extraction/depth_feature_extraction/dfe-n1/dfe-n1-conv1/weights/Initializer/random_uniform/RandomUniform"
  input: "regnet/feature_extraction/depth_feature_extraction/dfe-n1/dfe-n1-conv1/weights/Initializer/random_uniform/sub"
  attr {
    key: "T"
    value {
      type: DT_FLOAT
    }
  }
  attr {
    key: "_class"
    value {
      list {
        s: "loc:@regnet/feature_extraction/depth_feature_extraction/dfe-n1/dfe-n1-conv1/weights"
      }
    }
  }
}
node {
  name: "regnet/feature_extraction/depth_feature_extraction/dfe-n1/dfe-n1-conv1/weights/Initializer/random_uniform"
  op: "Add"
  input: "regnet/feature_extraction/depth_feature_extraction/dfe-n1/dfe-n1-conv1/weights/Initializer/random_uniform/mul"
  input: "regnet/feature_extraction/depth_feature_extraction/dfe-n1/dfe-n1-conv1/weights/Initializer/random_uniform/min"
  attr {
    key: "T"
    value {
      type: DT_FLOAT
    }
  }
  attr {
    key: "_class"
    value {
      list {
        s: "loc:@regnet/feature_extraction/depth_feature_extraction/dfe-n1/dfe-n1-conv1/weights"
      }
    }
  }
}
node {
  name: "regnet/feature_extraction/depth_feature_extraction/dfe-n1/dfe-n1-conv1/weights"
  op: "VariableV2"
  attr {
    key: "_class"
    value {
      list {
        s: "loc:@regnet/feature_extraction/depth_feature_extraction/dfe-n1/dfe-n1-conv1/weights"
      }
    }
  }
  attr {
    key: "container"
    value {
      s: ""
    }
  }
  attr {
    key: "dtype"
    value {
      type: DT_FLOAT
    }
  }
  attr {
    key: "shape"
    value {
      shape {
        dim {
          size: 11
        }
        dim {
          size: 11
        }
        dim {
          size: 1
        }
        dim {
          size: 48
        }
      }
    }
  }
  attr {
    key: "shared_name"
    value {
      s: ""
    }
  }
}
node {
  name: "regnet/feature_extraction/depth_feature_extraction/dfe-n1/dfe-n1-conv1/weights/Assign"
  op: "Assign"
  input: "regnet/feature_extraction/depth_feature_extraction/dfe-n1/dfe-n1-conv1/weights"
  input: "regnet/feature_extraction/depth_feature_extraction/dfe-n1/dfe-n1-conv1/weights/Initializer/random_uniform"
  attr {
    key: "T"
    value {
      type: DT_FLOAT
    }
  }
  attr {
    key: "_class"
    value {
      list {
        s: "loc:@regnet/feature_extraction/depth_feature_extraction/dfe-n1/dfe-n1-conv1/weights"
      }
    }
  }
  attr {
    key: "use_locking"
    value {
      b: true
    }
  }
  attr {
    key: "validate_shape"
    value {
      b: true
    }
  }
}
node {
  name: "regnet/feature_extraction/depth_feature_extraction/dfe-n1/dfe-n1-conv1/weights/read"
  op: "Identity"
  input: "regnet/feature_extraction/depth_feature_extraction/dfe-n1/dfe-n1-conv1/weights"
  attr {
    key: "T"
    value {
      type: DT_FLOAT
    }
  }
  attr {
    key: "_class"
    value {
      list {
        s: "loc:@regnet/feature_extraction/depth_feature_extraction/dfe-n1/dfe-n1-conv1/weights"
      }
    }
  }
}
node {
  name: "regnet/feature_extraction/depth_feature_extraction/dfe-n1/dfe-n1-conv1/biases/Initializer/zeros"
  op: "Const"
  attr {
    key: "_class"
    value {
      list {
        s: "loc:@regnet/feature_extraction/depth_feature_extraction/dfe-n1/dfe-n1-conv1/biases"
      }
    }
  }
  attr {
    key: "dtype"
    value {
      type: DT_FLOAT
    }
  }
  attr {
    key: "value"
    value {
      tensor {
        dtype: DT_FLOAT
        tensor_shape {
          dim {
            size: 48
          }
        }
        float_val: 0.0
      }
    }
  }
}
node {
  name: "regnet/feature_extraction/depth_feature_extraction/dfe-n1/dfe-n1-conv1/biases"
  op: "VariableV2"
  attr {
    key: "_class"
    value {
      list {
        s: "loc:@regnet/feature_extraction/depth_feature_extraction/dfe-n1/dfe-n1-conv1/biases"
      }
    }
  }
  attr {
    key: "container"
    value {
      s: ""
    }
  }
  attr {
    key: "dtype"
    value {
      type: DT_FLOAT
    }
  }
  attr {
    key: "shape"
    value {
      shape {
        dim {
          size: 48
        }
      }
    }
  }
  attr {
    key: "shared_name"
    value {
      s: ""
    }
  }
}
node {
  name: "regnet/feature_extraction/depth_feature_extraction/dfe-n1/dfe-n1-conv1/biases/Assign"
  op: "Assign"
  input: "regnet/feature_extraction/depth_feature_extraction/dfe-n1/dfe-n1-conv1/biases"
  input: "regnet/feature_extraction/depth_feature_extraction/dfe-n1/dfe-n1-conv1/biases/Initializer/zeros"
  attr {
    key: "T"
    value {
      type: DT_FLOAT
    }
  }
  attr {
    key: "_class"
    value {
      list {
        s: "loc:@regnet/feature_extraction/depth_feature_extraction/dfe-n1/dfe-n1-conv1/biases"
      }
    }
  }
  attr {
    key: "use_locking"
    value {
      b: true
    }
  }
  attr {
    key: "validate_shape"
    value {
      b: true
    }
  }
}
node {
  name: "regnet/feature_extraction/depth_feature_extraction/dfe-n1/dfe-n1-conv1/biases/read"
  op: "Identity"
  input: "regnet/feature_extraction/depth_feature_extraction/dfe-n1/dfe-n1-conv1/biases"
  attr {
    key: "T"
    value {
      type: DT_FLOAT
    }
  }
  attr {
    key: "_class"
    value {
      list {
        s: "loc:@regnet/feature_extraction/depth_feature_extraction/dfe-n1/dfe-n1-conv1/biases"
      }
    }
  }
}
node {
  name: "regnet/feature_extraction/depth_feature_extraction/dfe-n1/dfe-n1-conv1/dilation_rate"
  op: "Const"
  attr {
    key: "dtype"
    value {
      type: DT_INT32
    }
  }
  attr {
    key: "value"
    value {
      tensor {
        dtype: DT_INT32
        tensor_shape {
          dim {
            size: 2
          }
        }
        tensor_content: "\001\000\000\000\001\000\000\000"
      }
    }
  }
}
node {
  name: "regnet/feature_extraction/depth_feature_extraction/dfe-n1/dfe-n1-conv1/Conv2D"
  op: "Conv2D"
  input: "regnet/feature_extraction/depth_feature_extraction/dfe-pool2/MaxPool"
  input: "regnet/feature_extraction/depth_feature_extraction/dfe-n1/dfe-n1-conv1/weights/read"
  attr {
    key: "T"
    value {
      type: DT_FLOAT
    }
  }
  attr {
    key: "data_format"
    value {
      s: "NHWC"
    }
  }
  attr {
    key: "dilations"
    value {
      list {
        i: 1
        i: 1
        i: 1
        i: 1
      }
    }
  }
  attr {
    key: "padding"
    value {
      s: "SAME"
    }
  }
  attr {
    key: "strides"
    value {
      list {
        i: 1
        i: 4
        i: 4
        i: 1
      }
    }
  }
  attr {
    key: "use_cudnn_on_gpu"
    value {
      b: true
    }
  }
}
node {
  name: "regnet/feature_extraction/depth_feature_extraction/dfe-n1/dfe-n1-conv1/BiasAdd"
  op: "BiasAdd"
  input: "regnet/feature_extraction/depth_feature_extraction/dfe-n1/dfe-n1-conv1/Conv2D"
  input: "regnet/feature_extraction/depth_feature_extraction/dfe-n1/dfe-n1-conv1/biases/read"
  attr {
    key: "T"
    value {
      type: DT_FLOAT
    }
  }
  attr {
    key: "data_format"
    value {
      s: "NHWC"
    }
  }
}
node {
  name: "regnet/feature_extraction/depth_feature_extraction/dfe-n1/dfe-n1-conv1/Relu"
  op: "Relu"
  input: "regnet/feature_extraction/depth_feature_extraction/dfe-n1/dfe-n1-conv1/BiasAdd"
  attr {
    key: "T"
    value {
      type: DT_FLOAT
    }
  }
}
node {
  name: "regnet/feature_extraction/depth_feature_extraction/dfe-n1/dfe-n1-cccp1/weights/Initializer/random_uniform/shape"
  op: "Const"
  attr {
    key: "_class"
    value {
      list {
        s: "loc:@regnet/feature_extraction/depth_feature_extraction/dfe-n1/dfe-n1-cccp1/weights"
      }
    }
  }
  attr {
    key: "dtype"
    value {
      type: DT_INT32
    }
  }
  attr {
    key: "value"
    value {
      tensor {
        dtype: DT_INT32
        tensor_shape {
          dim {
            size: 4
          }
        }
        tensor_content: "\001\000\000\000\001\000\000\0000\000\000\0000\000\000\000"
      }
    }
  }
}
node {
  name: "regnet/feature_extraction/depth_feature_extraction/dfe-n1/dfe-n1-cccp1/weights/Initializer/random_uniform/min"
  op: "Const"
  attr {
    key: "_class"
    value {
      list {
        s: "loc:@regnet/feature_extraction/depth_feature_extraction/dfe-n1/dfe-n1-cccp1/weights"
      }
    }
  }
  attr {
    key: "dtype"
    value {
      type: DT_FLOAT
    }
  }
  attr {
    key: "value"
    value {
      tensor {
        dtype: DT_FLOAT
        tensor_shape {
        }
        float_val: -0.25
      }
    }
  }
}
node {
  name: "regnet/feature_extraction/depth_feature_extraction/dfe-n1/dfe-n1-cccp1/weights/Initializer/random_uniform/max"
  op: "Const"
  attr {
    key: "_class"
    value {
      list {
        s: "loc:@regnet/feature_extraction/depth_feature_extraction/dfe-n1/dfe-n1-cccp1/weights"
      }
    }
  }
  attr {
    key: "dtype"
    value {
      type: DT_FLOAT
    }
  }
  attr {
    key: "value"
    value {
      tensor {
        dtype: DT_FLOAT
        tensor_shape {
        }
        float_val: 0.25
      }
    }
  }
}
node {
  name: "regnet/feature_extraction/depth_feature_extraction/dfe-n1/dfe-n1-cccp1/weights/Initializer/random_uniform/RandomUniform"
  op: "RandomUniform"
  input: "regnet/feature_extraction/depth_feature_extraction/dfe-n1/dfe-n1-cccp1/weights/Initializer/random_uniform/shape"
  attr {
    key: "T"
    value {
      type: DT_INT32
    }
  }
  attr {
    key: "_class"
    value {
      list {
        s: "loc:@regnet/feature_extraction/depth_feature_extraction/dfe-n1/dfe-n1-cccp1/weights"
      }
    }
  }
  attr {
    key: "dtype"
    value {
      type: DT_FLOAT
    }
  }
  attr {
    key: "seed"
    value {
      i: 0
    }
  }
  attr {
    key: "seed2"
    value {
      i: 0
    }
  }
}
node {
  name: "regnet/feature_extraction/depth_feature_extraction/dfe-n1/dfe-n1-cccp1/weights/Initializer/random_uniform/sub"
  op: "Sub"
  input: "regnet/feature_extraction/depth_feature_extraction/dfe-n1/dfe-n1-cccp1/weights/Initializer/random_uniform/max"
  input: "regnet/feature_extraction/depth_feature_extraction/dfe-n1/dfe-n1-cccp1/weights/Initializer/random_uniform/min"
  attr {
    key: "T"
    value {
      type: DT_FLOAT
    }
  }
  attr {
    key: "_class"
    value {
      list {
        s: "loc:@regnet/feature_extraction/depth_feature_extraction/dfe-n1/dfe-n1-cccp1/weights"
      }
    }
  }
}
node {
  name: "regnet/feature_extraction/depth_feature_extraction/dfe-n1/dfe-n1-cccp1/weights/Initializer/random_uniform/mul"
  op: "Mul"
  input: "regnet/feature_extraction/depth_feature_extraction/dfe-n1/dfe-n1-cccp1/weights/Initializer/random_uniform/RandomUniform"
  input: "regnet/feature_extraction/depth_feature_extraction/dfe-n1/dfe-n1-cccp1/weights/Initializer/random_uniform/sub"
  attr {
    key: "T"
    value {
      type: DT_FLOAT
    }
  }
  attr {
    key: "_class"
    value {
      list {
        s: "loc:@regnet/feature_extraction/depth_feature_extraction/dfe-n1/dfe-n1-cccp1/weights"
      }
    }
  }
}
node {
  name: "regnet/feature_extraction/depth_feature_extraction/dfe-n1/dfe-n1-cccp1/weights/Initializer/random_uniform"
  op: "Add"
  input: "regnet/feature_extraction/depth_feature_extraction/dfe-n1/dfe-n1-cccp1/weights/Initializer/random_uniform/mul"
  input: "regnet/feature_extraction/depth_feature_extraction/dfe-n1/dfe-n1-cccp1/weights/Initializer/random_uniform/min"
  attr {
    key: "T"
    value {
      type: DT_FLOAT
    }
  }
  attr {
    key: "_class"
    value {
      list {
        s: "loc:@regnet/feature_extraction/depth_feature_extraction/dfe-n1/dfe-n1-cccp1/weights"
      }
    }
  }
}
node {
  name: "regnet/feature_extraction/depth_feature_extraction/dfe-n1/dfe-n1-cccp1/weights"
  op: "VariableV2"
  attr {
    key: "_class"
    value {
      list {
        s: "loc:@regnet/feature_extraction/depth_feature_extraction/dfe-n1/dfe-n1-cccp1/weights"
      }
    }
  }
  attr {
    key: "container"
    value {
      s: ""
    }
  }
  attr {
    key: "dtype"
    value {
      type: DT_FLOAT
    }
  }
  attr {
    key: "shape"
    value {
      shape {
        dim {
          size: 1
        }
        dim {
          size: 1
        }
        dim {
          size: 48
        }
        dim {
          size: 48
        }
      }
    }
  }
  attr {
    key: "shared_name"
    value {
      s: ""
    }
  }
}
node {
  name: "regnet/feature_extraction/depth_feature_extraction/dfe-n1/dfe-n1-cccp1/weights/Assign"
  op: "Assign"
  input: "regnet/feature_extraction/depth_feature_extraction/dfe-n1/dfe-n1-cccp1/weights"
  input: "regnet/feature_extraction/depth_feature_extraction/dfe-n1/dfe-n1-cccp1/weights/Initializer/random_uniform"
  attr {
    key: "T"
    value {
      type: DT_FLOAT
    }
  }
  attr {
    key: "_class"
    value {
      list {
        s: "loc:@regnet/feature_extraction/depth_feature_extraction/dfe-n1/dfe-n1-cccp1/weights"
      }
    }
  }
  attr {
    key: "use_locking"
    value {
      b: true
    }
  }
  attr {
    key: "validate_shape"
    value {
      b: true
    }
  }
}
node {
  name: "regnet/feature_extraction/depth_feature_extraction/dfe-n1/dfe-n1-cccp1/weights/read"
  op: "Identity"
  input: "regnet/feature_extraction/depth_feature_extraction/dfe-n1/dfe-n1-cccp1/weights"
  attr {
    key: "T"
    value {
      type: DT_FLOAT
    }
  }
  attr {
    key: "_class"
    value {
      list {
        s: "loc:@regnet/feature_extraction/depth_feature_extraction/dfe-n1/dfe-n1-cccp1/weights"
      }
    }
  }
}
node {
  name: "regnet/feature_extraction/depth_feature_extraction/dfe-n1/dfe-n1-cccp1/biases/Initializer/zeros"
  op: "Const"
  attr {
    key: "_class"
    value {
      list {
        s: "loc:@regnet/feature_extraction/depth_feature_extraction/dfe-n1/dfe-n1-cccp1/biases"
      }
    }
  }
  attr {
    key: "dtype"
    value {
      type: DT_FLOAT
    }
  }
  attr {
    key: "value"
    value {
      tensor {
        dtype: DT_FLOAT
        tensor_shape {
          dim {
            size: 48
          }
        }
        float_val: 0.0
      }
    }
  }
}
node {
  name: "regnet/feature_extraction/depth_feature_extraction/dfe-n1/dfe-n1-cccp1/biases"
  op: "VariableV2"
  attr {
    key: "_class"
    value {
      list {
        s: "loc:@regnet/feature_extraction/depth_feature_extraction/dfe-n1/dfe-n1-cccp1/biases"
      }
    }
  }
  attr {
    key: "container"
    value {
      s: ""
    }
  }
  attr {
    key: "dtype"
    value {
      type: DT_FLOAT
    }
  }
  attr {
    key: "shape"
    value {
      shape {
        dim {
          size: 48
        }
      }
    }
  }
  attr {
    key: "shared_name"
    value {
      s: ""
    }
  }
}
node {
  name: "regnet/feature_extraction/depth_feature_extraction/dfe-n1/dfe-n1-cccp1/biases/Assign"
  op: "Assign"
  input: "regnet/feature_extraction/depth_feature_extraction/dfe-n1/dfe-n1-cccp1/biases"
  input: "regnet/feature_extraction/depth_feature_extraction/dfe-n1/dfe-n1-cccp1/biases/Initializer/zeros"
  attr {
    key: "T"
    value {
      type: DT_FLOAT
    }
  }
  attr {
    key: "_class"
    value {
      list {
        s: "loc:@regnet/feature_extraction/depth_feature_extraction/dfe-n1/dfe-n1-cccp1/biases"
      }
    }
  }
  attr {
    key: "use_locking"
    value {
      b: true
    }
  }
  attr {
    key: "validate_shape"
    value {
      b: true
    }
  }
}
node {
  name: "regnet/feature_extraction/depth_feature_extraction/dfe-n1/dfe-n1-cccp1/biases/read"
  op: "Identity"
  input: "regnet/feature_extraction/depth_feature_extraction/dfe-n1/dfe-n1-cccp1/biases"
  attr {
    key: "T"
    value {
      type: DT_FLOAT
    }
  }
  attr {
    key: "_class"
    value {
      list {
        s: "loc:@regnet/feature_extraction/depth_feature_extraction/dfe-n1/dfe-n1-cccp1/biases"
      }
    }
  }
}
node {
  name: "regnet/feature_extraction/depth_feature_extraction/dfe-n1/dfe-n1-cccp1/dilation_rate"
  op: "Const"
  attr {
    key: "dtype"
    value {
      type: DT_INT32
    }
  }
  attr {
    key: "value"
    value {
      tensor {
        dtype: DT_INT32
        tensor_shape {
          dim {
            size: 2
          }
        }
        tensor_content: "\001\000\000\000\001\000\000\000"
      }
    }
  }
}
node {
  name: "regnet/feature_extraction/depth_feature_extraction/dfe-n1/dfe-n1-cccp1/Conv2D"
  op: "Conv2D"
  input: "regnet/feature_extraction/depth_feature_extraction/dfe-n1/dfe-n1-conv1/Relu"
  input: "regnet/feature_extraction/depth_feature_extraction/dfe-n1/dfe-n1-cccp1/weights/read"
  attr {
    key: "T"
    value {
      type: DT_FLOAT
    }
  }
  attr {
    key: "data_format"
    value {
      s: "NHWC"
    }
  }
  attr {
    key: "dilations"
    value {
      list {
        i: 1
        i: 1
        i: 1
        i: 1
      }
    }
  }
  attr {
    key: "padding"
    value {
      s: "SAME"
    }
  }
  attr {
    key: "strides"
    value {
      list {
        i: 1
        i: 1
        i: 1
        i: 1
      }
    }
  }
  attr {
    key: "use_cudnn_on_gpu"
    value {
      b: true
    }
  }
}
node {
  name: "regnet/feature_extraction/depth_feature_extraction/dfe-n1/dfe-n1-cccp1/BiasAdd"
  op: "BiasAdd"
  input: "regnet/feature_extraction/depth_feature_extraction/dfe-n1/dfe-n1-cccp1/Conv2D"
  input: "regnet/feature_extraction/depth_feature_extraction/dfe-n1/dfe-n1-cccp1/biases/read"
  attr {
    key: "T"
    value {
      type: DT_FLOAT
    }
  }
  attr {
    key: "data_format"
    value {
      s: "NHWC"
    }
  }
}
node {
  name: "regnet/feature_extraction/depth_feature_extraction/dfe-n1/dfe-n1-cccp1/Relu"
  op: "Relu"
  input: "regnet/feature_extraction/depth_feature_extraction/dfe-n1/dfe-n1-cccp1/BiasAdd"
  attr {
    key: "T"
    value {
      type: DT_FLOAT
    }
  }
}
node {
  name: "regnet/feature_extraction/depth_feature_extraction/dfe-n1/dfe-n1-cccp2/weights/Initializer/random_uniform/shape"
  op: "Const"
  attr {
    key: "_class"
    value {
      list {
        s: "loc:@regnet/feature_extraction/depth_feature_extraction/dfe-n1/dfe-n1-cccp2/weights"
      }
    }
  }
  attr {
    key: "dtype"
    value {
      type: DT_INT32
    }
  }
  attr {
    key: "value"
    value {
      tensor {
        dtype: DT_INT32
        tensor_shape {
          dim {
            size: 4
          }
        }
        tensor_content: "\001\000\000\000\001\000\000\0000\000\000\0000\000\000\000"
      }
    }
  }
}
node {
  name: "regnet/feature_extraction/depth_feature_extraction/dfe-n1/dfe-n1-cccp2/weights/Initializer/random_uniform/min"
  op: "Const"
  attr {
    key: "_class"
    value {
      list {
        s: "loc:@regnet/feature_extraction/depth_feature_extraction/dfe-n1/dfe-n1-cccp2/weights"
      }
    }
  }
  attr {
    key: "dtype"
    value {
      type: DT_FLOAT
    }
  }
  attr {
    key: "value"
    value {
      tensor {
        dtype: DT_FLOAT
        tensor_shape {
        }
        float_val: -0.25
      }
    }
  }
}
node {
  name: "regnet/feature_extraction/depth_feature_extraction/dfe-n1/dfe-n1-cccp2/weights/Initializer/random_uniform/max"
  op: "Const"
  attr {
    key: "_class"
    value {
      list {
        s: "loc:@regnet/feature_extraction/depth_feature_extraction/dfe-n1/dfe-n1-cccp2/weights"
      }
    }
  }
  attr {
    key: "dtype"
    value {
      type: DT_FLOAT
    }
  }
  attr {
    key: "value"
    value {
      tensor {
        dtype: DT_FLOAT
        tensor_shape {
        }
        float_val: 0.25
      }
    }
  }
}
node {
  name: "regnet/feature_extraction/depth_feature_extraction/dfe-n1/dfe-n1-cccp2/weights/Initializer/random_uniform/RandomUniform"
  op: "RandomUniform"
  input: "regnet/feature_extraction/depth_feature_extraction/dfe-n1/dfe-n1-cccp2/weights/Initializer/random_uniform/shape"
  attr {
    key: "T"
    value {
      type: DT_INT32
    }
  }
  attr {
    key: "_class"
    value {
      list {
        s: "loc:@regnet/feature_extraction/depth_feature_extraction/dfe-n1/dfe-n1-cccp2/weights"
      }
    }
  }
  attr {
    key: "dtype"
    value {
      type: DT_FLOAT
    }
  }
  attr {
    key: "seed"
    value {
      i: 0
    }
  }
  attr {
    key: "seed2"
    value {
      i: 0
    }
  }
}
node {
  name: "regnet/feature_extraction/depth_feature_extraction/dfe-n1/dfe-n1-cccp2/weights/Initializer/random_uniform/sub"
  op: "Sub"
  input: "regnet/feature_extraction/depth_feature_extraction/dfe-n1/dfe-n1-cccp2/weights/Initializer/random_uniform/max"
  input: "regnet/feature_extraction/depth_feature_extraction/dfe-n1/dfe-n1-cccp2/weights/Initializer/random_uniform/min"
  attr {
    key: "T"
    value {
      type: DT_FLOAT
    }
  }
  attr {
    key: "_class"
    value {
      list {
        s: "loc:@regnet/feature_extraction/depth_feature_extraction/dfe-n1/dfe-n1-cccp2/weights"
      }
    }
  }
}
node {
  name: "regnet/feature_extraction/depth_feature_extraction/dfe-n1/dfe-n1-cccp2/weights/Initializer/random_uniform/mul"
  op: "Mul"
  input: "regnet/feature_extraction/depth_feature_extraction/dfe-n1/dfe-n1-cccp2/weights/Initializer/random_uniform/RandomUniform"
  input: "regnet/feature_extraction/depth_feature_extraction/dfe-n1/dfe-n1-cccp2/weights/Initializer/random_uniform/sub"
  attr {
    key: "T"
    value {
      type: DT_FLOAT
    }
  }
  attr {
    key: "_class"
    value {
      list {
        s: "loc:@regnet/feature_extraction/depth_feature_extraction/dfe-n1/dfe-n1-cccp2/weights"
      }
    }
  }
}
node {
  name: "regnet/feature_extraction/depth_feature_extraction/dfe-n1/dfe-n1-cccp2/weights/Initializer/random_uniform"
  op: "Add"
  input: "regnet/feature_extraction/depth_feature_extraction/dfe-n1/dfe-n1-cccp2/weights/Initializer/random_uniform/mul"
  input: "regnet/feature_extraction/depth_feature_extraction/dfe-n1/dfe-n1-cccp2/weights/Initializer/random_uniform/min"
  attr {
    key: "T"
    value {
      type: DT_FLOAT
    }
  }
  attr {
    key: "_class"
    value {
      list {
        s: "loc:@regnet/feature_extraction/depth_feature_extraction/dfe-n1/dfe-n1-cccp2/weights"
      }
    }
  }
}
node {
  name: "regnet/feature_extraction/depth_feature_extraction/dfe-n1/dfe-n1-cccp2/weights"
  op: "VariableV2"
  attr {
    key: "_class"
    value {
      list {
        s: "loc:@regnet/feature_extraction/depth_feature_extraction/dfe-n1/dfe-n1-cccp2/weights"
      }
    }
  }
  attr {
    key: "container"
    value {
      s: ""
    }
  }
  attr {
    key: "dtype"
    value {
      type: DT_FLOAT
    }
  }
  attr {
    key: "shape"
    value {
      shape {
        dim {
          size: 1
        }
        dim {
          size: 1
        }
        dim {
          size: 48
        }
        dim {
          size: 48
        }
      }
    }
  }
  attr {
    key: "shared_name"
    value {
      s: ""
    }
  }
}
node {
  name: "regnet/feature_extraction/depth_feature_extraction/dfe-n1/dfe-n1-cccp2/weights/Assign"
  op: "Assign"
  input: "regnet/feature_extraction/depth_feature_extraction/dfe-n1/dfe-n1-cccp2/weights"
  input: "regnet/feature_extraction/depth_feature_extraction/dfe-n1/dfe-n1-cccp2/weights/Initializer/random_uniform"
  attr {
    key: "T"
    value {
      type: DT_FLOAT
    }
  }
  attr {
    key: "_class"
    value {
      list {
        s: "loc:@regnet/feature_extraction/depth_feature_extraction/dfe-n1/dfe-n1-cccp2/weights"
      }
    }
  }
  attr {
    key: "use_locking"
    value {
      b: true
    }
  }
  attr {
    key: "validate_shape"
    value {
      b: true
    }
  }
}
node {
  name: "regnet/feature_extraction/depth_feature_extraction/dfe-n1/dfe-n1-cccp2/weights/read"
  op: "Identity"
  input: "regnet/feature_extraction/depth_feature_extraction/dfe-n1/dfe-n1-cccp2/weights"
  attr {
    key: "T"
    value {
      type: DT_FLOAT
    }
  }
  attr {
    key: "_class"
    value {
      list {
        s: "loc:@regnet/feature_extraction/depth_feature_extraction/dfe-n1/dfe-n1-cccp2/weights"
      }
    }
  }
}
node {
  name: "regnet/feature_extraction/depth_feature_extraction/dfe-n1/dfe-n1-cccp2/biases/Initializer/zeros"
  op: "Const"
  attr {
    key: "_class"
    value {
      list {
        s: "loc:@regnet/feature_extraction/depth_feature_extraction/dfe-n1/dfe-n1-cccp2/biases"
      }
    }
  }
  attr {
    key: "dtype"
    value {
      type: DT_FLOAT
    }
  }
  attr {
    key: "value"
    value {
      tensor {
        dtype: DT_FLOAT
        tensor_shape {
          dim {
            size: 48
          }
        }
        float_val: 0.0
      }
    }
  }
}
node {
  name: "regnet/feature_extraction/depth_feature_extraction/dfe-n1/dfe-n1-cccp2/biases"
  op: "VariableV2"
  attr {
    key: "_class"
    value {
      list {
        s: "loc:@regnet/feature_extraction/depth_feature_extraction/dfe-n1/dfe-n1-cccp2/biases"
      }
    }
  }
  attr {
    key: "container"
    value {
      s: ""
    }
  }
  attr {
    key: "dtype"
    value {
      type: DT_FLOAT
    }
  }
  attr {
    key: "shape"
    value {
      shape {
        dim {
          size: 48
        }
      }
    }
  }
  attr {
    key: "shared_name"
    value {
      s: ""
    }
  }
}
node {
  name: "regnet/feature_extraction/depth_feature_extraction/dfe-n1/dfe-n1-cccp2/biases/Assign"
  op: "Assign"
  input: "regnet/feature_extraction/depth_feature_extraction/dfe-n1/dfe-n1-cccp2/biases"
  input: "regnet/feature_extraction/depth_feature_extraction/dfe-n1/dfe-n1-cccp2/biases/Initializer/zeros"
  attr {
    key: "T"
    value {
      type: DT_FLOAT
    }
  }
  attr {
    key: "_class"
    value {
      list {
        s: "loc:@regnet/feature_extraction/depth_feature_extraction/dfe-n1/dfe-n1-cccp2/biases"
      }
    }
  }
  attr {
    key: "use_locking"
    value {
      b: true
    }
  }
  attr {
    key: "validate_shape"
    value {
      b: true
    }
  }
}
node {
  name: "regnet/feature_extraction/depth_feature_extraction/dfe-n1/dfe-n1-cccp2/biases/read"
  op: "Identity"
  input: "regnet/feature_extraction/depth_feature_extraction/dfe-n1/dfe-n1-cccp2/biases"
  attr {
    key: "T"
    value {
      type: DT_FLOAT
    }
  }
  attr {
    key: "_class"
    value {
      list {
        s: "loc:@regnet/feature_extraction/depth_feature_extraction/dfe-n1/dfe-n1-cccp2/biases"
      }
    }
  }
}
node {
  name: "regnet/feature_extraction/depth_feature_extraction/dfe-n1/dfe-n1-cccp2/dilation_rate"
  op: "Const"
  attr {
    key: "dtype"
    value {
      type: DT_INT32
    }
  }
  attr {
    key: "value"
    value {
      tensor {
        dtype: DT_INT32
        tensor_shape {
          dim {
            size: 2
          }
        }
        tensor_content: "\001\000\000\000\001\000\000\000"
      }
    }
  }
}
node {
  name: "regnet/feature_extraction/depth_feature_extraction/dfe-n1/dfe-n1-cccp2/Conv2D"
  op: "Conv2D"
  input: "regnet/feature_extraction/depth_feature_extraction/dfe-n1/dfe-n1-cccp1/Relu"
  input: "regnet/feature_extraction/depth_feature_extraction/dfe-n1/dfe-n1-cccp2/weights/read"
  attr {
    key: "T"
    value {
      type: DT_FLOAT
    }
  }
  attr {
    key: "data_format"
    value {
      s: "NHWC"
    }
  }
  attr {
    key: "dilations"
    value {
      list {
        i: 1
        i: 1
        i: 1
        i: 1
      }
    }
  }
  attr {
    key: "padding"
    value {
      s: "SAME"
    }
  }
  attr {
    key: "strides"
    value {
      list {
        i: 1
        i: 1
        i: 1
        i: 1
      }
    }
  }
  attr {
    key: "use_cudnn_on_gpu"
    value {
      b: true
    }
  }
}
node {
  name: "regnet/feature_extraction/depth_feature_extraction/dfe-n1/dfe-n1-cccp2/BiasAdd"
  op: "BiasAdd"
  input: "regnet/feature_extraction/depth_feature_extraction/dfe-n1/dfe-n1-cccp2/Conv2D"
  input: "regnet/feature_extraction/depth_feature_extraction/dfe-n1/dfe-n1-cccp2/biases/read"
  attr {
    key: "T"
    value {
      type: DT_FLOAT
    }
  }
  attr {
    key: "data_format"
    value {
      s: "NHWC"
    }
  }
}
node {
  name: "regnet/feature_extraction/depth_feature_extraction/dfe-n1/dfe-n1-cccp2/Relu"
  op: "Relu"
  input: "regnet/feature_extraction/depth_feature_extraction/dfe-n1/dfe-n1-cccp2/BiasAdd"
  attr {
    key: "T"
    value {
      type: DT_FLOAT
    }
  }
}
node {
  name: "regnet/feature_extraction/depth_feature_extraction/dfe-n1/dfe-n1-max/MaxPool"
  op: "MaxPool"
  input: "regnet/feature_extraction/depth_feature_extraction/dfe-n1/dfe-n1-cccp2/Relu"
  attr {
    key: "T"
    value {
      type: DT_FLOAT
    }
  }
  attr {
    key: "data_format"
    value {
      s: "NHWC"
    }
  }
  attr {
    key: "ksize"
    value {
      list {
        i: 1
        i: 3
        i: 3
        i: 1
      }
    }
  }
  attr {
    key: "padding"
    value {
      s: "SAME"
    }
  }
  attr {
    key: "strides"
    value {
      list {
        i: 1
        i: 2
        i: 2
        i: 1
      }
    }
  }
}
node {
  name: "regnet/feature_extraction/depth_feature_extraction/dfe-n2/dfe-n2-conv1/weights/Initializer/random_uniform/shape"
  op: "Const"
  attr {
    key: "_class"
    value {
      list {
        s: "loc:@regnet/feature_extraction/depth_feature_extraction/dfe-n2/dfe-n2-conv1/weights"
      }
    }
  }
  attr {
    key: "dtype"
    value {
      type: DT_INT32
    }
  }
  attr {
    key: "value"
    value {
      tensor {
        dtype: DT_INT32
        tensor_shape {
          dim {
            size: 4
          }
        }
        tensor_content: "\005\000\000\000\005\000\000\0000\000\000\000\200\000\000\000"
      }
    }
  }
}
node {
  name: "regnet/feature_extraction/depth_feature_extraction/dfe-n2/dfe-n2-conv1/weights/Initializer/random_uniform/min"
  op: "Const"
  attr {
    key: "_class"
    value {
      list {
        s: "loc:@regnet/feature_extraction/depth_feature_extraction/dfe-n2/dfe-n2-conv1/weights"
      }
    }
  }
  attr {
    key: "dtype"
    value {
      type: DT_FLOAT
    }
  }
  attr {
    key: "value"
    value {
      tensor {
        dtype: DT_FLOAT
        tensor_shape {
        }
        float_val: -0.036927446722984314
      }
    }
  }
}
node {
  name: "regnet/feature_extraction/depth_feature_extraction/dfe-n2/dfe-n2-conv1/weights/Initializer/random_uniform/max"
  op: "Const"
  attr {
    key: "_class"
    value {
      list {
        s: "loc:@regnet/feature_extraction/depth_feature_extraction/dfe-n2/dfe-n2-conv1/weights"
      }
    }
  }
  attr {
    key: "dtype"
    value {
      type: DT_FLOAT
    }
  }
  attr {
    key: "value"
    value {
      tensor {
        dtype: DT_FLOAT
        tensor_shape {
        }
        float_val: 0.036927446722984314
      }
    }
  }
}
node {
  name: "regnet/feature_extraction/depth_feature_extraction/dfe-n2/dfe-n2-conv1/weights/Initializer/random_uniform/RandomUniform"
  op: "RandomUniform"
  input: "regnet/feature_extraction/depth_feature_extraction/dfe-n2/dfe-n2-conv1/weights/Initializer/random_uniform/shape"
  attr {
    key: "T"
    value {
      type: DT_INT32
    }
  }
  attr {
    key: "_class"
    value {
      list {
        s: "loc:@regnet/feature_extraction/depth_feature_extraction/dfe-n2/dfe-n2-conv1/weights"
      }
    }
  }
  attr {
    key: "dtype"
    value {
      type: DT_FLOAT
    }
  }
  attr {
    key: "seed"
    value {
      i: 0
    }
  }
  attr {
    key: "seed2"
    value {
      i: 0
    }
  }
}
node {
  name: "regnet/feature_extraction/depth_feature_extraction/dfe-n2/dfe-n2-conv1/weights/Initializer/random_uniform/sub"
  op: "Sub"
  input: "regnet/feature_extraction/depth_feature_extraction/dfe-n2/dfe-n2-conv1/weights/Initializer/random_uniform/max"
  input: "regnet/feature_extraction/depth_feature_extraction/dfe-n2/dfe-n2-conv1/weights/Initializer/random_uniform/min"
  attr {
    key: "T"
    value {
      type: DT_FLOAT
    }
  }
  attr {
    key: "_class"
    value {
      list {
        s: "loc:@regnet/feature_extraction/depth_feature_extraction/dfe-n2/dfe-n2-conv1/weights"
      }
    }
  }
}
node {
  name: "regnet/feature_extraction/depth_feature_extraction/dfe-n2/dfe-n2-conv1/weights/Initializer/random_uniform/mul"
  op: "Mul"
  input: "regnet/feature_extraction/depth_feature_extraction/dfe-n2/dfe-n2-conv1/weights/Initializer/random_uniform/RandomUniform"
  input: "regnet/feature_extraction/depth_feature_extraction/dfe-n2/dfe-n2-conv1/weights/Initializer/random_uniform/sub"
  attr {
    key: "T"
    value {
      type: DT_FLOAT
    }
  }
  attr {
    key: "_class"
    value {
      list {
        s: "loc:@regnet/feature_extraction/depth_feature_extraction/dfe-n2/dfe-n2-conv1/weights"
      }
    }
  }
}
node {
  name: "regnet/feature_extraction/depth_feature_extraction/dfe-n2/dfe-n2-conv1/weights/Initializer/random_uniform"
  op: "Add"
  input: "regnet/feature_extraction/depth_feature_extraction/dfe-n2/dfe-n2-conv1/weights/Initializer/random_uniform/mul"
  input: "regnet/feature_extraction/depth_feature_extraction/dfe-n2/dfe-n2-conv1/weights/Initializer/random_uniform/min"
  attr {
    key: "T"
    value {
      type: DT_FLOAT
    }
  }
  attr {
    key: "_class"
    value {
      list {
        s: "loc:@regnet/feature_extraction/depth_feature_extraction/dfe-n2/dfe-n2-conv1/weights"
      }
    }
  }
}
node {
  name: "regnet/feature_extraction/depth_feature_extraction/dfe-n2/dfe-n2-conv1/weights"
  op: "VariableV2"
  attr {
    key: "_class"
    value {
      list {
        s: "loc:@regnet/feature_extraction/depth_feature_extraction/dfe-n2/dfe-n2-conv1/weights"
      }
    }
  }
  attr {
    key: "container"
    value {
      s: ""
    }
  }
  attr {
    key: "dtype"
    value {
      type: DT_FLOAT
    }
  }
  attr {
    key: "shape"
    value {
      shape {
        dim {
          size: 5
        }
        dim {
          size: 5
        }
        dim {
          size: 48
        }
        dim {
          size: 128
        }
      }
    }
  }
  attr {
    key: "shared_name"
    value {
      s: ""
    }
  }
}
node {
  name: "regnet/feature_extraction/depth_feature_extraction/dfe-n2/dfe-n2-conv1/weights/Assign"
  op: "Assign"
  input: "regnet/feature_extraction/depth_feature_extraction/dfe-n2/dfe-n2-conv1/weights"
  input: "regnet/feature_extraction/depth_feature_extraction/dfe-n2/dfe-n2-conv1/weights/Initializer/random_uniform"
  attr {
    key: "T"
    value {
      type: DT_FLOAT
    }
  }
  attr {
    key: "_class"
    value {
      list {
        s: "loc:@regnet/feature_extraction/depth_feature_extraction/dfe-n2/dfe-n2-conv1/weights"
      }
    }
  }
  attr {
    key: "use_locking"
    value {
      b: true
    }
  }
  attr {
    key: "validate_shape"
    value {
      b: true
    }
  }
}
node {
  name: "regnet/feature_extraction/depth_feature_extraction/dfe-n2/dfe-n2-conv1/weights/read"
  op: "Identity"
  input: "regnet/feature_extraction/depth_feature_extraction/dfe-n2/dfe-n2-conv1/weights"
  attr {
    key: "T"
    value {
      type: DT_FLOAT
    }
  }
  attr {
    key: "_class"
    value {
      list {
        s: "loc:@regnet/feature_extraction/depth_feature_extraction/dfe-n2/dfe-n2-conv1/weights"
      }
    }
  }
}
node {
  name: "regnet/feature_extraction/depth_feature_extraction/dfe-n2/dfe-n2-conv1/biases/Initializer/zeros"
  op: "Const"
  attr {
    key: "_class"
    value {
      list {
        s: "loc:@regnet/feature_extraction/depth_feature_extraction/dfe-n2/dfe-n2-conv1/biases"
      }
    }
  }
  attr {
    key: "dtype"
    value {
      type: DT_FLOAT
    }
  }
  attr {
    key: "value"
    value {
      tensor {
        dtype: DT_FLOAT
        tensor_shape {
          dim {
            size: 128
          }
        }
        float_val: 0.0
      }
    }
  }
}
node {
  name: "regnet/feature_extraction/depth_feature_extraction/dfe-n2/dfe-n2-conv1/biases"
  op: "VariableV2"
  attr {
    key: "_class"
    value {
      list {
        s: "loc:@regnet/feature_extraction/depth_feature_extraction/dfe-n2/dfe-n2-conv1/biases"
      }
    }
  }
  attr {
    key: "container"
    value {
      s: ""
    }
  }
  attr {
    key: "dtype"
    value {
      type: DT_FLOAT
    }
  }
  attr {
    key: "shape"
    value {
      shape {
        dim {
          size: 128
        }
      }
    }
  }
  attr {
    key: "shared_name"
    value {
      s: ""
    }
  }
}
node {
  name: "regnet/feature_extraction/depth_feature_extraction/dfe-n2/dfe-n2-conv1/biases/Assign"
  op: "Assign"
  input: "regnet/feature_extraction/depth_feature_extraction/dfe-n2/dfe-n2-conv1/biases"
  input: "regnet/feature_extraction/depth_feature_extraction/dfe-n2/dfe-n2-conv1/biases/Initializer/zeros"
  attr {
    key: "T"
    value {
      type: DT_FLOAT
    }
  }
  attr {
    key: "_class"
    value {
      list {
        s: "loc:@regnet/feature_extraction/depth_feature_extraction/dfe-n2/dfe-n2-conv1/biases"
      }
    }
  }
  attr {
    key: "use_locking"
    value {
      b: true
    }
  }
  attr {
    key: "validate_shape"
    value {
      b: true
    }
  }
}
node {
  name: "regnet/feature_extraction/depth_feature_extraction/dfe-n2/dfe-n2-conv1/biases/read"
  op: "Identity"
  input: "regnet/feature_extraction/depth_feature_extraction/dfe-n2/dfe-n2-conv1/biases"
  attr {
    key: "T"
    value {
      type: DT_FLOAT
    }
  }
  attr {
    key: "_class"
    value {
      list {
        s: "loc:@regnet/feature_extraction/depth_feature_extraction/dfe-n2/dfe-n2-conv1/biases"
      }
    }
  }
}
node {
  name: "regnet/feature_extraction/depth_feature_extraction/dfe-n2/dfe-n2-conv1/dilation_rate"
  op: "Const"
  attr {
    key: "dtype"
    value {
      type: DT_INT32
    }
  }
  attr {
    key: "value"
    value {
      tensor {
        dtype: DT_INT32
        tensor_shape {
          dim {
            size: 2
          }
        }
        tensor_content: "\001\000\000\000\001\000\000\000"
      }
    }
  }
}
node {
  name: "regnet/feature_extraction/depth_feature_extraction/dfe-n2/dfe-n2-conv1/Conv2D"
  op: "Conv2D"
  input: "regnet/feature_extraction/depth_feature_extraction/dfe-n1/dfe-n1-max/MaxPool"
  input: "regnet/feature_extraction/depth_feature_extraction/dfe-n2/dfe-n2-conv1/weights/read"
  attr {
    key: "T"
    value {
      type: DT_FLOAT
    }
  }
  attr {
    key: "data_format"
    value {
      s: "NHWC"
    }
  }
  attr {
    key: "dilations"
    value {
      list {
        i: 1
        i: 1
        i: 1
        i: 1
      }
    }
  }
  attr {
    key: "padding"
    value {
      s: "SAME"
    }
  }
  attr {
    key: "strides"
    value {
      list {
        i: 1
        i: 1
        i: 1
        i: 1
      }
    }
  }
  attr {
    key: "use_cudnn_on_gpu"
    value {
      b: true
    }
  }
}
node {
  name: "regnet/feature_extraction/depth_feature_extraction/dfe-n2/dfe-n2-conv1/BiasAdd"
  op: "BiasAdd"
  input: "regnet/feature_extraction/depth_feature_extraction/dfe-n2/dfe-n2-conv1/Conv2D"
  input: "regnet/feature_extraction/depth_feature_extraction/dfe-n2/dfe-n2-conv1/biases/read"
  attr {
    key: "T"
    value {
      type: DT_FLOAT
    }
  }
  attr {
    key: "data_format"
    value {
      s: "NHWC"
    }
  }
}
node {
  name: "regnet/feature_extraction/depth_feature_extraction/dfe-n2/dfe-n2-conv1/Relu"
  op: "Relu"
  input: "regnet/feature_extraction/depth_feature_extraction/dfe-n2/dfe-n2-conv1/BiasAdd"
  attr {
    key: "T"
    value {
      type: DT_FLOAT
    }
  }
}
node {
  name: "regnet/feature_extraction/depth_feature_extraction/dfe-n2/dfe-n2-cccp1/weights/Initializer/random_uniform/shape"
  op: "Const"
  attr {
    key: "_class"
    value {
      list {
        s: "loc:@regnet/feature_extraction/depth_feature_extraction/dfe-n2/dfe-n2-cccp1/weights"
      }
    }
  }
  attr {
    key: "dtype"
    value {
      type: DT_INT32
    }
  }
  attr {
    key: "value"
    value {
      tensor {
        dtype: DT_INT32
        tensor_shape {
          dim {
            size: 4
          }
        }
        tensor_content: "\001\000\000\000\001\000\000\000\200\000\000\000\200\000\000\000"
      }
    }
  }
}
node {
  name: "regnet/feature_extraction/depth_feature_extraction/dfe-n2/dfe-n2-cccp1/weights/Initializer/random_uniform/min"
  op: "Const"
  attr {
    key: "_class"
    value {
      list {
        s: "loc:@regnet/feature_extraction/depth_feature_extraction/dfe-n2/dfe-n2-cccp1/weights"
      }
    }
  }
  attr {
    key: "dtype"
    value {
      type: DT_FLOAT
    }
  }
  attr {
    key: "value"
    value {
      tensor {
        dtype: DT_FLOAT
        tensor_shape {
        }
        float_val: -0.1530931144952774
      }
    }
  }
}
node {
  name: "regnet/feature_extraction/depth_feature_extraction/dfe-n2/dfe-n2-cccp1/weights/Initializer/random_uniform/max"
  op: "Const"
  attr {
    key: "_class"
    value {
      list {
        s: "loc:@regnet/feature_extraction/depth_feature_extraction/dfe-n2/dfe-n2-cccp1/weights"
      }
    }
  }
  attr {
    key: "dtype"
    value {
      type: DT_FLOAT
    }
  }
  attr {
    key: "value"
    value {
      tensor {
        dtype: DT_FLOAT
        tensor_shape {
        }
        float_val: 0.1530931144952774
      }
    }
  }
}
node {
  name: "regnet/feature_extraction/depth_feature_extraction/dfe-n2/dfe-n2-cccp1/weights/Initializer/random_uniform/RandomUniform"
  op: "RandomUniform"
  input: "regnet/feature_extraction/depth_feature_extraction/dfe-n2/dfe-n2-cccp1/weights/Initializer/random_uniform/shape"
  attr {
    key: "T"
    value {
      type: DT_INT32
    }
  }
  attr {
    key: "_class"
    value {
      list {
        s: "loc:@regnet/feature_extraction/depth_feature_extraction/dfe-n2/dfe-n2-cccp1/weights"
      }
    }
  }
  attr {
    key: "dtype"
    value {
      type: DT_FLOAT
    }
  }
  attr {
    key: "seed"
    value {
      i: 0
    }
  }
  attr {
    key: "seed2"
    value {
      i: 0
    }
  }
}
node {
  name: "regnet/feature_extraction/depth_feature_extraction/dfe-n2/dfe-n2-cccp1/weights/Initializer/random_uniform/sub"
  op: "Sub"
  input: "regnet/feature_extraction/depth_feature_extraction/dfe-n2/dfe-n2-cccp1/weights/Initializer/random_uniform/max"
  input: "regnet/feature_extraction/depth_feature_extraction/dfe-n2/dfe-n2-cccp1/weights/Initializer/random_uniform/min"
  attr {
    key: "T"
    value {
      type: DT_FLOAT
    }
  }
  attr {
    key: "_class"
    value {
      list {
        s: "loc:@regnet/feature_extraction/depth_feature_extraction/dfe-n2/dfe-n2-cccp1/weights"
      }
    }
  }
}
node {
  name: "regnet/feature_extraction/depth_feature_extraction/dfe-n2/dfe-n2-cccp1/weights/Initializer/random_uniform/mul"
  op: "Mul"
  input: "regnet/feature_extraction/depth_feature_extraction/dfe-n2/dfe-n2-cccp1/weights/Initializer/random_uniform/RandomUniform"
  input: "regnet/feature_extraction/depth_feature_extraction/dfe-n2/dfe-n2-cccp1/weights/Initializer/random_uniform/sub"
  attr {
    key: "T"
    value {
      type: DT_FLOAT
    }
  }
  attr {
    key: "_class"
    value {
      list {
        s: "loc:@regnet/feature_extraction/depth_feature_extraction/dfe-n2/dfe-n2-cccp1/weights"
      }
    }
  }
}
node {
  name: "regnet/feature_extraction/depth_feature_extraction/dfe-n2/dfe-n2-cccp1/weights/Initializer/random_uniform"
  op: "Add"
  input: "regnet/feature_extraction/depth_feature_extraction/dfe-n2/dfe-n2-cccp1/weights/Initializer/random_uniform/mul"
  input: "regnet/feature_extraction/depth_feature_extraction/dfe-n2/dfe-n2-cccp1/weights/Initializer/random_uniform/min"
  attr {
    key: "T"
    value {
      type: DT_FLOAT
    }
  }
  attr {
    key: "_class"
    value {
      list {
        s: "loc:@regnet/feature_extraction/depth_feature_extraction/dfe-n2/dfe-n2-cccp1/weights"
      }
    }
  }
}
node {
  name: "regnet/feature_extraction/depth_feature_extraction/dfe-n2/dfe-n2-cccp1/weights"
  op: "VariableV2"
  attr {
    key: "_class"
    value {
      list {
        s: "loc:@regnet/feature_extraction/depth_feature_extraction/dfe-n2/dfe-n2-cccp1/weights"
      }
    }
  }
  attr {
    key: "container"
    value {
      s: ""
    }
  }
  attr {
    key: "dtype"
    value {
      type: DT_FLOAT
    }
  }
  attr {
    key: "shape"
    value {
      shape {
        dim {
          size: 1
        }
        dim {
          size: 1
        }
        dim {
          size: 128
        }
        dim {
          size: 128
        }
      }
    }
  }
  attr {
    key: "shared_name"
    value {
      s: ""
    }
  }
}
node {
  name: "regnet/feature_extraction/depth_feature_extraction/dfe-n2/dfe-n2-cccp1/weights/Assign"
  op: "Assign"
  input: "regnet/feature_extraction/depth_feature_extraction/dfe-n2/dfe-n2-cccp1/weights"
  input: "regnet/feature_extraction/depth_feature_extraction/dfe-n2/dfe-n2-cccp1/weights/Initializer/random_uniform"
  attr {
    key: "T"
    value {
      type: DT_FLOAT
    }
  }
  attr {
    key: "_class"
    value {
      list {
        s: "loc:@regnet/feature_extraction/depth_feature_extraction/dfe-n2/dfe-n2-cccp1/weights"
      }
    }
  }
  attr {
    key: "use_locking"
    value {
      b: true
    }
  }
  attr {
    key: "validate_shape"
    value {
      b: true
    }
  }
}
node {
  name: "regnet/feature_extraction/depth_feature_extraction/dfe-n2/dfe-n2-cccp1/weights/read"
  op: "Identity"
  input: "regnet/feature_extraction/depth_feature_extraction/dfe-n2/dfe-n2-cccp1/weights"
  attr {
    key: "T"
    value {
      type: DT_FLOAT
    }
  }
  attr {
    key: "_class"
    value {
      list {
        s: "loc:@regnet/feature_extraction/depth_feature_extraction/dfe-n2/dfe-n2-cccp1/weights"
      }
    }
  }
}
node {
  name: "regnet/feature_extraction/depth_feature_extraction/dfe-n2/dfe-n2-cccp1/biases/Initializer/zeros"
  op: "Const"
  attr {
    key: "_class"
    value {
      list {
        s: "loc:@regnet/feature_extraction/depth_feature_extraction/dfe-n2/dfe-n2-cccp1/biases"
      }
    }
  }
  attr {
    key: "dtype"
    value {
      type: DT_FLOAT
    }
  }
  attr {
    key: "value"
    value {
      tensor {
        dtype: DT_FLOAT
        tensor_shape {
          dim {
            size: 128
          }
        }
        float_val: 0.0
      }
    }
  }
}
node {
  name: "regnet/feature_extraction/depth_feature_extraction/dfe-n2/dfe-n2-cccp1/biases"
  op: "VariableV2"
  attr {
    key: "_class"
    value {
      list {
        s: "loc:@regnet/feature_extraction/depth_feature_extraction/dfe-n2/dfe-n2-cccp1/biases"
      }
    }
  }
  attr {
    key: "container"
    value {
      s: ""
    }
  }
  attr {
    key: "dtype"
    value {
      type: DT_FLOAT
    }
  }
  attr {
    key: "shape"
    value {
      shape {
        dim {
          size: 128
        }
      }
    }
  }
  attr {
    key: "shared_name"
    value {
      s: ""
    }
  }
}
node {
  name: "regnet/feature_extraction/depth_feature_extraction/dfe-n2/dfe-n2-cccp1/biases/Assign"
  op: "Assign"
  input: "regnet/feature_extraction/depth_feature_extraction/dfe-n2/dfe-n2-cccp1/biases"
  input: "regnet/feature_extraction/depth_feature_extraction/dfe-n2/dfe-n2-cccp1/biases/Initializer/zeros"
  attr {
    key: "T"
    value {
      type: DT_FLOAT
    }
  }
  attr {
    key: "_class"
    value {
      list {
        s: "loc:@regnet/feature_extraction/depth_feature_extraction/dfe-n2/dfe-n2-cccp1/biases"
      }
    }
  }
  attr {
    key: "use_locking"
    value {
      b: true
    }
  }
  attr {
    key: "validate_shape"
    value {
      b: true
    }
  }
}
node {
  name: "regnet/feature_extraction/depth_feature_extraction/dfe-n2/dfe-n2-cccp1/biases/read"
  op: "Identity"
  input: "regnet/feature_extraction/depth_feature_extraction/dfe-n2/dfe-n2-cccp1/biases"
  attr {
    key: "T"
    value {
      type: DT_FLOAT
    }
  }
  attr {
    key: "_class"
    value {
      list {
        s: "loc:@regnet/feature_extraction/depth_feature_extraction/dfe-n2/dfe-n2-cccp1/biases"
      }
    }
  }
}
node {
  name: "regnet/feature_extraction/depth_feature_extraction/dfe-n2/dfe-n2-cccp1/dilation_rate"
  op: "Const"
  attr {
    key: "dtype"
    value {
      type: DT_INT32
    }
  }
  attr {
    key: "value"
    value {
      tensor {
        dtype: DT_INT32
        tensor_shape {
          dim {
            size: 2
          }
        }
        tensor_content: "\001\000\000\000\001\000\000\000"
      }
    }
  }
}
node {
  name: "regnet/feature_extraction/depth_feature_extraction/dfe-n2/dfe-n2-cccp1/Conv2D"
  op: "Conv2D"
  input: "regnet/feature_extraction/depth_feature_extraction/dfe-n2/dfe-n2-conv1/Relu"
  input: "regnet/feature_extraction/depth_feature_extraction/dfe-n2/dfe-n2-cccp1/weights/read"
  attr {
    key: "T"
    value {
      type: DT_FLOAT
    }
  }
  attr {
    key: "data_format"
    value {
      s: "NHWC"
    }
  }
  attr {
    key: "dilations"
    value {
      list {
        i: 1
        i: 1
        i: 1
        i: 1
      }
    }
  }
  attr {
    key: "padding"
    value {
      s: "SAME"
    }
  }
  attr {
    key: "strides"
    value {
      list {
        i: 1
        i: 1
        i: 1
        i: 1
      }
    }
  }
  attr {
    key: "use_cudnn_on_gpu"
    value {
      b: true
    }
  }
}
node {
  name: "regnet/feature_extraction/depth_feature_extraction/dfe-n2/dfe-n2-cccp1/BiasAdd"
  op: "BiasAdd"
  input: "regnet/feature_extraction/depth_feature_extraction/dfe-n2/dfe-n2-cccp1/Conv2D"
  input: "regnet/feature_extraction/depth_feature_extraction/dfe-n2/dfe-n2-cccp1/biases/read"
  attr {
    key: "T"
    value {
      type: DT_FLOAT
    }
  }
  attr {
    key: "data_format"
    value {
      s: "NHWC"
    }
  }
}
node {
  name: "regnet/feature_extraction/depth_feature_extraction/dfe-n2/dfe-n2-cccp1/Relu"
  op: "Relu"
  input: "regnet/feature_extraction/depth_feature_extraction/dfe-n2/dfe-n2-cccp1/BiasAdd"
  attr {
    key: "T"
    value {
      type: DT_FLOAT
    }
  }
}
node {
  name: "regnet/feature_extraction/depth_feature_extraction/dfe-n2/dfe-n2-cccp2/weights/Initializer/random_uniform/shape"
  op: "Const"
  attr {
    key: "_class"
    value {
      list {
        s: "loc:@regnet/feature_extraction/depth_feature_extraction/dfe-n2/dfe-n2-cccp2/weights"
      }
    }
  }
  attr {
    key: "dtype"
    value {
      type: DT_INT32
    }
  }
  attr {
    key: "value"
    value {
      tensor {
        dtype: DT_INT32
        tensor_shape {
          dim {
            size: 4
          }
        }
        tensor_content: "\001\000\000\000\001\000\000\000\200\000\000\000\200\000\000\000"
      }
    }
  }
}
node {
  name: "regnet/feature_extraction/depth_feature_extraction/dfe-n2/dfe-n2-cccp2/weights/Initializer/random_uniform/min"
  op: "Const"
  attr {
    key: "_class"
    value {
      list {
        s: "loc:@regnet/feature_extraction/depth_feature_extraction/dfe-n2/dfe-n2-cccp2/weights"
      }
    }
  }
  attr {
    key: "dtype"
    value {
      type: DT_FLOAT
    }
  }
  attr {
    key: "value"
    value {
…
  attr {
    key: "use_locking"
    value {
      b: true
    }
  }
  attr {
    key: "validate_shape"
    value {
      b: true
    }
  }
}
node {
  name: "save/Assign_78"
  op: "Assign"
  input: "train_opt/regnet/feature_extraction/depth_feature_extraction/dfe-n2/dfe-n2-conv1/weights/Adam"
  input: "save/RestoreV2:78"
  attr {
    key: "T"
    value {
      type: DT_FLOAT
    }
  }
  attr {
    key: "_class"
    value {
      list {
        s: "loc:@regnet/feature_extraction/depth_feature_extraction/dfe-n2/dfe-n2-conv1/weights"
      }
    }
  }
  attr {
    key: "use_locking"
    value {
      b: true
    }
  }
  attr {
    key: "validate_shape"
    value {
      b: true
    }
  }
}
node {
  name: "save/Assign_79"
  op: "Assign"
  input: "train_opt/regnet/feature_extraction/depth_feature_extraction/dfe-n2/dfe-n2-conv1/weights/Adam_1"
  input: "save/RestoreV2:79"
  attr {
    key: "T"
    value {
      type: DT_FLOAT
    }
  }
  attr {
    key: "_class"
    value {
      list {
        s: "loc:@regnet/feature_extraction/depth_feature_extraction/dfe-n2/dfe-n2-conv1/weights"
      }
    }
  }
  attr {
    key: "use_locking"
    value {
      b: true
    }
  }
  attr {
    key: "validate_shape"
    value {
      b: true
    }
  }
}
node {
  name: "save/Assign_80"
  op: "Assign"
  input: "train_opt/regnet/feature_extraction/depth_feature_extraction/dfe-n3/dfe-n3-cccp1/biases/Adam"
  input: "save/RestoreV2:80"
  attr {
    key: "T"
    value {
      type: DT_FLOAT
    }
  }
  attr {
    key: "_class"
    value {
      list {
        s: "loc:@regnet/feature_extraction/depth_feature_extraction/dfe-n3/dfe-n3-cccp1/biases"
      }
    }
  }
  attr {
    key: "use_locking"
    value {
      b: true
    }
  }
  attr {
    key: "validate_shape"
    value {
      b: true
    }
  }
}
node {
  name: "save/Assign_81"
  op: "Assign"
  input: "train_opt/regnet/feature_extraction/depth_feature_extraction/dfe-n3/dfe-n3-cccp1/biases/Adam_1"
  input: "save/RestoreV2:81"
  attr {
    key: "T"
    value {
      type: DT_FLOAT
    }
  }
  attr {
    key: "_class"
    value {
      list {
        s: "loc:@regnet/feature_extraction/depth_feature_extraction/dfe-n3/dfe-n3-cccp1/biases"
      }
    }
  }
  attr {
    key: "use_locking"
    value {
      b: true
    }
  }
  attr {
    key: "validate_shape"
    value {
      b: true
    }
  }
}
node {
  name: "save/Assign_82"
  op: "Assign"
  input: "train_opt/regnet/feature_extraction/depth_feature_extraction/dfe-n3/dfe-n3-cccp1/weights/Adam"
  input: "save/RestoreV2:82"
  attr {
    key: "T"
    value {
      type: DT_FLOAT
    }
  }
  attr {
    key: "_class"
    value {
      list {
        s: "loc:@regnet/feature_extraction/depth_feature_extraction/dfe-n3/dfe-n3-cccp1/weights"
      }
    }
  }
  attr {
    key: "use_locking"
    value {
      b: true
    }
  }
  attr {
    key: "validate_shape"
    value {
      b: true
    }
  }
}
node {
  name: "save/Assign_83"
  op: "Assign"
  input: "train_opt/regnet/feature_extraction/depth_feature_extraction/dfe-n3/dfe-n3-cccp1/weights/Adam_1"
  input: "save/RestoreV2:83"
  attr {
    key: "T"
    value {
      type: DT_FLOAT
    }
  }
  attr {
    key: "_class"
    value {
      list {
        s: "loc:@regnet/feature_extraction/depth_feature_extraction/dfe-n3/dfe-n3-cccp1/weights"
      }
    }
  }
  attr {
    key: "use_locking"
    value {
      b: true
    }
  }
  attr {
    key: "validate_shape"
    value {
      b: true
    }
  }
}
node {
  name: "save/Assign_84"
  op: "Assign"
  input: "train_opt/regnet/feature_extraction/depth_feature_extraction/dfe-n3/dfe-n3-cccp2/biases/Adam"
  input: "save/RestoreV2:84"
  attr {
    key: "T"
    value {
      type: DT_FLOAT
    }
  }
  attr {
    key: "_class"
    value {
      list {
        s: "loc:@regnet/feature_extraction/depth_feature_extraction/dfe-n3/dfe-n3-cccp2/biases"
      }
    }
  }
  attr {
    key: "use_locking"
    value {
      b: true
    }
  }
  attr {
    key: "validate_shape"
    value {
      b: true
    }
  }
}
node {
  name: "save/Assign_85"
  op: "Assign"
  input: "train_opt/regnet/feature_extraction/depth_feature_extraction/dfe-n3/dfe-n3-cccp2/biases/Adam_1"
  input: "save/RestoreV2:85"
  attr {
    key: "T"
    value {
      type: DT_FLOAT
    }
  }
  attr {
    key: "_class"
    value {
      list {
        s: "loc:@regnet/feature_extraction/depth_feature_extraction/dfe-n3/dfe-n3-cccp2/biases"
      }
    }
  }
  attr {
    key: "use_locking"
    value {
      b: true
    }
  }
  attr {
    key: "validate_shape"
    value {
      b: true
    }
  }
}
node {
  name: "save/Assign_86"
  op: "Assign"
  input: "train_opt/regnet/feature_extraction/depth_feature_extraction/dfe-n3/dfe-n3-cccp2/weights/Adam"
  input: "save/RestoreV2:86"
  attr {
    key: "T"
    value {
      type: DT_FLOAT
    }
  }
  attr {
    key: "_class"
    value {
      list {
        s: "loc:@regnet/feature_extraction/depth_feature_extraction/dfe-n3/dfe-n3-cccp2/weights"
      }
    }
  }
  attr {
    key: "use_locking"
    value {
      b: true
    }
  }
  attr {
    key: "validate_shape"
    value {
      b: true
    }
  }
}
node {
  name: "save/Assign_87"
  op: "Assign"
  input: "train_opt/regnet/feature_extraction/depth_feature_extraction/dfe-n3/dfe-n3-cccp2/weights/Adam_1"
  input: "save/RestoreV2:87"
  attr {
    key: "T"
    value {
      type: DT_FLOAT
    }
  }
  attr {
    key: "_class"
    value {
      list {
        s: "loc:@regnet/feature_extraction/depth_feature_extraction/dfe-n3/dfe-n3-cccp2/weights"
      }
    }
  }
  attr {
    key: "use_locking"
    value {
      b: true
    }
  }
  attr {
    key: "validate_shape"
    value {
      b: true
    }
  }
}
node {
  name: "save/Assign_88"
  op: "Assign"
  input: "train_opt/regnet/feature_extraction/depth_feature_extraction/dfe-n3/dfe-n3-conv1/biases/Adam"
  input: "save/RestoreV2:88"
  attr {
    key: "T"
    value {
      type: DT_FLOAT
    }
  }
  attr {
    key: "_class"
    value {
      list {
        s: "loc:@regnet/feature_extraction/depth_feature_extraction/dfe-n3/dfe-n3-conv1/biases"
      }
    }
  }
  attr {
    key: "use_locking"
    value {
      b: true
    }
  }
  attr {
    key: "validate_shape"
    value {
      b: true
    }
  }
}
node {
  name: "save/Assign_89"
  op: "Assign"
  input: "train_opt/regnet/feature_extraction/depth_feature_extraction/dfe-n3/dfe-n3-conv1/biases/Adam_1"
  input: "save/RestoreV2:89"
  attr {
    key: "T"
    value {
      type: DT_FLOAT
    }
  }
  attr {
    key: "_class"
    value {
      list {
        s: "loc:@regnet/feature_extraction/depth_feature_extraction/dfe-n3/dfe-n3-conv1/biases"
      }
    }
  }
  attr {
    key: "use_locking"
    value {
      b: true
    }
  }
  attr {
    key: "validate_shape"
    value {
      b: true
    }
  }
}
node {
  name: "save/Assign_90"
  op: "Assign"
  input: "train_opt/regnet/feature_extraction/depth_feature_extraction/dfe-n3/dfe-n3-conv1/weights/Adam"
  input: "save/RestoreV2:90"
  attr {
    key: "T"
    value {
      type: DT_FLOAT
    }
  }
  attr {
    key: "_class"
    value {
      list {
        s: "loc:@regnet/feature_extraction/depth_feature_extraction/dfe-n3/dfe-n3-conv1/weights"
      }
    }
  }
  attr {
    key: "use_locking"
    value {
      b: true
    }
  }
  attr {
    key: "validate_shape"
    value {
      b: true
    }
  }
}
node {
  name: "save/Assign_91"
  op: "Assign"
  input: "train_opt/regnet/feature_extraction/depth_feature_extraction/dfe-n3/dfe-n3-conv1/weights/Adam_1"
  input: "save/RestoreV2:91"
  attr {
    key: "T"
    value {
      type: DT_FLOAT
    }
  }
  attr {
    key: "_class"
    value {
      list {
        s: "loc:@regnet/feature_extraction/depth_feature_extraction/dfe-n3/dfe-n3-conv1/weights"
      }
    }
  }
  attr {
    key: "use_locking"
    value {
      b: true
    }
  }
  attr {
    key: "validate_shape"
    value {
      b: true
    }
  }
}
node {
  name: "save/Assign_92"
  op: "Assign"
  input: "train_opt/regnet/feature_extraction/rgb_feature_extraction/rfe-n1/rfe-n1-cccp1/biases/Adam"
  input: "save/RestoreV2:92"
  attr {
    key: "T"
    value {
      type: DT_FLOAT
    }
  }
  attr {
    key: "_class"
    value {
      list {
        s: "loc:@regnet/feature_extraction/rgb_feature_extraction/rfe-n1/rfe-n1-cccp1/biases"
      }
    }
  }
  attr {
    key: "use_locking"
    value {
      b: true
    }
  }
  attr {
    key: "validate_shape"
    value {
      b: true
    }
  }
}
node {
  name: "save/Assign_93"
  op: "Assign"
  input: "train_opt/regnet/feature_extraction/rgb_feature_extraction/rfe-n1/rfe-n1-cccp1/biases/Adam_1"
  input: "save/RestoreV2:93"
  attr {
    key: "T"
    value {
      type: DT_FLOAT
    }
  }
  attr {
    key: "_class"
    value {
      list {
        s: "loc:@regnet/feature_extraction/rgb_feature_extraction/rfe-n1/rfe-n1-cccp1/biases"
      }
    }
  }
  attr {
    key: "use_locking"
    value {
      b: true
    }
  }
  attr {
    key: "validate_shape"
    value {
      b: true
    }
  }
}
node {
  name: "save/Assign_94"
  op: "Assign"
  input: "train_opt/regnet/feature_extraction/rgb_feature_extraction/rfe-n1/rfe-n1-cccp1/weights/Adam"
  input: "save/RestoreV2:94"
  attr {
    key: "T"
    value {
      type: DT_FLOAT
    }
  }
  attr {
    key: "_class"
    value {
      list {
        s: "loc:@regnet/feature_extraction/rgb_feature_extraction/rfe-n1/rfe-n1-cccp1/weights"
      }
    }
  }
  attr {
    key: "use_locking"
    value {
      b: true
    }
  }
  attr {
    key: "validate_shape"
    value {
      b: true
    }
  }
}
node {
  name: "save/Assign_95"
  op: "Assign"
  input: "train_opt/regnet/feature_extraction/rgb_feature_extraction/rfe-n1/rfe-n1-cccp1/weights/Adam_1"
  input: "save/RestoreV2:95"
  attr {
    key: "T"
    value {
      type: DT_FLOAT
    }
  }
  attr {
    key: "_class"
    value {
      list {
        s: "loc:@regnet/feature_extraction/rgb_feature_extraction/rfe-n1/rfe-n1-cccp1/weights"
      }
    }
  }
  attr {
    key: "use_locking"
    value {
      b: true
    }
  }
  attr {
    key: "validate_shape"
    value {
      b: true
    }
  }
}
node {
  name: "save/Assign_96"
  op: "Assign"
  input: "train_opt/regnet/feature_extraction/rgb_feature_extraction/rfe-n1/rfe-n1-cccp2/biases/Adam"
  input: "save/RestoreV2:96"
  attr {
    key: "T"
    value {
      type: DT_FLOAT
    }
  }
  attr {
    key: "_class"
    value {
      list {
        s: "loc:@regnet/feature_extraction/rgb_feature_extraction/rfe-n1/rfe-n1-cccp2/biases"
      }
    }
  }
  attr {
    key: "use_locking"
    value {
      b: true
    }
  }
  attr {
    key: "validate_shape"
    value {
      b: true
    }
  }
}
node {
  name: "save/Assign_97"
  op: "Assign"
  input: "train_opt/regnet/feature_extraction/rgb_feature_extraction/rfe-n1/rfe-n1-cccp2/biases/Adam_1"
  input: "save/RestoreV2:97"
  attr {
    key: "T"
    value {
      type: DT_FLOAT
    }
  }
  attr {
    key: "_class"
    value {
      list {
        s: "loc:@regnet/feature_extraction/rgb_feature_extraction/rfe-n1/rfe-n1-cccp2/biases"
      }
    }
  }
  attr {
    key: "use_locking"
    value {
      b: true
    }
  }
  attr {
    key: "validate_shape"
    value {
      b: true
    }
  }
}
node {
  name: "save/Assign_98"
  op: "Assign"
  input: "train_opt/regnet/feature_extraction/rgb_feature_extraction/rfe-n1/rfe-n1-cccp2/weights/Adam"
  input: "save/RestoreV2:98"
  attr {
    key: "T"
    value {
      type: DT_FLOAT
    }
  }
  attr {
    key: "_class"
    value {
      list {
        s: "loc:@regnet/feature_extraction/rgb_feature_extraction/rfe-n1/rfe-n1-cccp2/weights"
      }
    }
  }
  attr {
    key: "use_locking"
    value {
      b: true
    }
  }
  attr {
    key: "validate_shape"
    value {
      b: true
    }
  }
}
node {
  name: "save/Assign_99"
  op: "Assign"
  input: "train_opt/regnet/feature_extraction/rgb_feature_extraction/rfe-n1/rfe-n1-cccp2/weights/Adam_1"
  input: "save/RestoreV2:99"
  attr {
    key: "T"
    value {
      type: DT_FLOAT
    }
  }
  attr {
    key: "_class"
    value {
      list {
        s: "loc:@regnet/feature_extraction/rgb_feature_extraction/rfe-n1/rfe-n1-cccp2/weights"
      }
    }
  }
  attr {
    key: "use_locking"
    value {
      b: true
    }
  }
  attr {
    key: "validate_shape"
    value {
      b: true
    }
  }
}
node {
  name: "save/Assign_100"
  op: "Assign"
  input: "train_opt/regnet/feature_extraction/rgb_feature_extraction/rfe-n1/rfe-n1-conv1/biases/Adam"
  input: "save/RestoreV2:100"
  attr {
    key: "T"
    value {
      type: DT_FLOAT
    }
  }
  attr {
    key: "_class"
    value {
      list {
        s: "loc:@regnet/feature_extraction/rgb_feature_extraction/rfe-n1/rfe-n1-conv1/biases"
      }
    }
  }
  attr {
    key: "use_locking"
    value {
      b: true
    }
  }
  attr {
    key: "validate_shape"
    value {
      b: true
    }
  }
}
node {
  name: "save/Assign_101"
  op: "Assign"
  input: "train_opt/regnet/feature_extraction/rgb_feature_extraction/rfe-n1/rfe-n1-conv1/biases/Adam_1"
  input: "save/RestoreV2:101"
  attr {
    key: "T"
    value {
      type: DT_FLOAT
    }
  }
  attr {
    key: "_class"
    value {
      list {
        s: "loc:@regnet/feature_extraction/rgb_feature_extraction/rfe-n1/rfe-n1-conv1/biases"
      }
    }
  }
  attr {
    key: "use_locking"
    value {
      b: true
    }
  }
  attr {
    key: "validate_shape"
    value {
      b: true
    }
  }
}
node {
  name: "save/Assign_102"
  op: "Assign"
  input: "train_opt/regnet/feature_extraction/rgb_feature_extraction/rfe-n1/rfe-n1-conv1/weights/Adam"
  input: "save/RestoreV2:102"
  attr {
    key: "T"
    value {
      type: DT_FLOAT
    }
  }
  attr {
    key: "_class"
    value {
      list {
        s: "loc:@regnet/feature_extraction/rgb_feature_extraction/rfe-n1/rfe-n1-conv1/weights"
      }
    }
  }
  attr {
    key: "use_locking"
    value {
      b: true
    }
  }
  attr {
    key: "validate_shape"
    value {
      b: true
    }
  }
}
node {
  name: "save/Assign_103"
  op: "Assign"
  input: "train_opt/regnet/feature_extraction/rgb_feature_extraction/rfe-n1/rfe-n1-conv1/weights/Adam_1"
  input: "save/RestoreV2:103"
  attr {
    key: "T"
    value {
      type: DT_FLOAT
    }
  }
  attr {
    key: "_class"
    value {
      list {
        s: "loc:@regnet/feature_extraction/rgb_feature_extraction/rfe-n1/rfe-n1-conv1/weights"
      }
    }
  }
  attr {
    key: "use_locking"
    value {
      b: true
    }
  }
  attr {
    key: "validate_shape"
    value {
      b: true
    }
  }
}
node {
  name: "save/Assign_104"
  op: "Assign"
  input: "train_opt/regnet/feature_extraction/rgb_feature_extraction/rfe-n2/rfe-n2-cccp1/biases/Adam"
  input: "save/RestoreV2:104"
  attr {
    key: "T"
    value {
      type: DT_FLOAT
    }
  }
  attr {
    key: "_class"
    value {
      list {
        s: "loc:@regnet/feature_extraction/rgb_feature_extraction/rfe-n2/rfe-n2-cccp1/biases"
      }
    }
  }
  attr {
    key: "use_locking"
    value {
      b: true
    }
  }
  attr {
    key: "validate_shape"
    value {
      b: true
    }
  }
}
node {
  name: "save/Assign_105"
  op: "Assign"
  input: "train_opt/regnet/feature_extraction/rgb_feature_extraction/rfe-n2/rfe-n2-cccp1/biases/Adam_1"
  input: "save/RestoreV2:105"
  attr {
    key: "T"
    value {
      type: DT_FLOAT
    }
  }
  attr {
    key: "_class"
    value {
      list {
        s: "loc:@regnet/feature_extraction/rgb_feature_extraction/rfe-n2/rfe-n2-cccp1/biases"
      }
    }
  }
  attr {
    key: "use_locking"
    value {
      b: true
    }
  }
  attr {
    key: "validate_shape"
    value {
      b: true
    }
  }
}
node {
  name: "save/Assign_106"
  op: "Assign"
  input: "train_opt/regnet/feature_extraction/rgb_feature_extraction/rfe-n2/rfe-n2-cccp1/weights/Adam"
  input: "save/RestoreV2:106"
  attr {
    key: "T"
    value {
      type: DT_FLOAT
    }
  }
  attr {
    key: "_class"
    value {
      list {
        s: "loc:@regnet/feature_extraction/rgb_feature_extraction/rfe-n2/rfe-n2-cccp1/weights"
      }
    }
  }
  attr {
    key: "use_locking"
    value {
      b: true
    }
  }
  attr {
    key: "validate_shape"
    value {
      b: true
    }
  }
}
node {
  name: "save/Assign_107"
  op: "Assign"
  input: "train_opt/regnet/feature_extraction/rgb_feature_extraction/rfe-n2/rfe-n2-cccp1/weights/Adam_1"
  input: "save/RestoreV2:107"
  attr {
    key: "T"
    value {
      type: DT_FLOAT
    }
  }
  attr {
    key: "_class"
    value {
      list {
        s: "loc:@regnet/feature_extraction/rgb_feature_extraction/rfe-n2/rfe-n2-cccp1/weights"
      }
    }
  }
  attr {
    key: "use_locking"
    value {
      b: true
    }
  }
  attr {
    key: "validate_shape"
    value {
      b: true
    }
  }
}
node {
  name: "save/Assign_108"
  op: "Assign"
  input: "train_opt/regnet/feature_extraction/rgb_feature_extraction/rfe-n2/rfe-n2-cccp2/biases/Adam"
  input: "save/RestoreV2:108"
  attr {
    key: "T"
    value {
      type: DT_FLOAT
    }
  }
  attr {
    key: "_class"
    value {
      list {
        s: "loc:@regnet/feature_extraction/rgb_feature_extraction/rfe-n2/rfe-n2-cccp2/biases"
      }
    }
  }
  attr {
    key: "use_locking"
    value {
      b: true
    }
  }
  attr {
    key: "validate_shape"
    value {
      b: true
    }
  }
}
node {
  name: "save/Assign_109"
  op: "Assign"
  input: "train_opt/regnet/feature_extraction/rgb_feature_extraction/rfe-n2/rfe-n2-cccp2/biases/Adam_1"
  input: "save/RestoreV2:109"
  attr {
    key: "T"
    value {
      type: DT_FLOAT
    }
  }
  attr {
    key: "_class"
    value {
      list {
        s: "loc:@regnet/feature_extraction/rgb_feature_extraction/rfe-n2/rfe-n2-cccp2/biases"
      }
    }
  }
  attr {
    key: "use_locking"
    value {
      b: true
    }
  }
  attr {
    key: "validate_shape"
    value {
      b: true
    }
  }
}
node {
  name: "save/Assign_110"
  op: "Assign"
  input: "train_opt/regnet/feature_extraction/rgb_feature_extraction/rfe-n2/rfe-n2-cccp2/weights/Adam"
  input: "save/RestoreV2:110"
  attr {
    key: "T"
    value {
      type: DT_FLOAT
    }
  }
  attr {
    key: "_class"
    value {
      list {
        s: "loc:@regnet/feature_extraction/rgb_feature_extraction/rfe-n2/rfe-n2-cccp2/weights"
      }
    }
  }
  attr {
    key: "use_locking"
    value {
      b: true
    }
  }
  attr {
    key: "validate_shape"
    value {
      b: true
    }
  }
}
node {
  name: "save/Assign_111"
  op: "Assign"
  input: "train_opt/regnet/feature_extraction/rgb_feature_extraction/rfe-n2/rfe-n2-cccp2/weights/Adam_1"
  input: "save/RestoreV2:111"
  attr {
    key: "T"
    value {
      type: DT_FLOAT
    }
  }
  attr {
    key: "_class"
    value {
      list {
        s: "loc:@regnet/feature_extraction/rgb_feature_extraction/rfe-n2/rfe-n2-cccp2/weights"
      }
    }
  }
  attr {
    key: "use_locking"
    value {
      b: true
    }
  }
  attr {
    key: "validate_shape"
    value {
      b: true
    }
  }
}
node {
  name: "save/Assign_112"
  op: "Assign"
  input: "train_opt/regnet/feature_extraction/rgb_feature_extraction/rfe-n2/rfe-n2-conv1/biases/Adam"
  input: "save/RestoreV2:112"
  attr {
    key: "T"
    value {
      type: DT_FLOAT
    }
  }
  attr {
    key: "_class"
    value {
      list {
        s: "loc:@regnet/feature_extraction/rgb_feature_extraction/rfe-n2/rfe-n2-conv1/biases"
      }
    }
  }
  attr {
    key: "use_locking"
    value {
      b: true
    }
  }
  attr {
    key: "validate_shape"
    value {
      b: true
    }
  }
}
node {
  name: "save/Assign_113"
  op: "Assign"
  input: "train_opt/regnet/feature_extraction/rgb_feature_extraction/rfe-n2/rfe-n2-conv1/biases/Adam_1"
  input: "save/RestoreV2:113"
  attr {
    key: "T"
    value {
      type: DT_FLOAT
    }
  }
  attr {
    key: "_class"
    value {
      list {
        s: "loc:@regnet/feature_extraction/rgb_feature_extraction/rfe-n2/rfe-n2-conv1/biases"
      }
    }
  }
  attr {
    key: "use_locking"
    value {
      b: true
    }
  }
  attr {
    key: "validate_shape"
    value {
      b: true
    }
  }
}
node {
  name: "save/Assign_114"
  op: "Assign"
  input: "train_opt/regnet/feature_extraction/rgb_feature_extraction/rfe-n2/rfe-n2-conv1/weights/Adam"
  input: "save/RestoreV2:114"
  attr {
    key: "T"
    value {
      type: DT_FLOAT
    }
  }
  attr {
    key: "_class"
    value {
      list {
        s: "loc:@regnet/feature_extraction/rgb_feature_extraction/rfe-n2/rfe-n2-conv1/weights"
      }
    }
  }
  attr {
    key: "use_locking"
    value {
      b: true
    }
  }
  attr {
    key: "validate_shape"
    value {
      b: true
    }
  }
}
node {
  name: "save/Assign_115"
  op: "Assign"
  input: "train_opt/regnet/feature_extraction/rgb_feature_extraction/rfe-n2/rfe-n2-conv1/weights/Adam_1"
  input: "save/RestoreV2:115"
  attr {
    key: "T"
    value {
      type: DT_FLOAT
    }
  }
  attr {
    key: "_class"
    value {
      list {
        s: "loc:@regnet/feature_extraction/rgb_feature_extraction/rfe-n2/rfe-n2-conv1/weights"
      }
    }
  }
  attr {
    key: "use_locking"
    value {
      b: true
    }
  }
  attr {
    key: "validate_shape"
    value {
      b: true
    }
  }
}
node {
  name: "save/Assign_116"
  op: "Assign"
  input: "train_opt/regnet/feature_extraction/rgb_feature_extraction/rfe-n3/rfe-n3-cccp1/biases/Adam"
  input: "save/RestoreV2:116"
  attr {
    key: "T"
    value {
      type: DT_FLOAT
    }
  }
  attr {
    key: "_class"
    value {
      list {
        s: "loc:@regnet/feature_extraction/rgb_feature_extraction/rfe-n3/rfe-n3-cccp1/biases"
      }
    }
  }
  attr {
    key: "use_locking"
    value {
      b: true
    }
  }
  attr {
    key: "validate_shape"
    value {
      b: true
    }
  }
}
node {
  name: "save/Assign_117"
  op: "Assign"
  input: "train_opt/regnet/feature_extraction/rgb_feature_extraction/rfe-n3/rfe-n3-cccp1/biases/Adam_1"
  input: "save/RestoreV2:117"
  attr {
    key: "T"
    value {
      type: DT_FLOAT
    }
  }
  attr {
    key: "_class"
    value {
      list {
        s: "loc:@regnet/feature_extraction/rgb_feature_extraction/rfe-n3/rfe-n3-cccp1/biases"
      }
    }
  }
  attr {
    key: "use_locking"
    value {
      b: true
    }
  }
  attr {
    key: "validate_shape"
    value {
      b: true
    }
  }
}
node {
  name: "save/Assign_118"
  op: "Assign"
  input: "train_opt/regnet/feature_extraction/rgb_feature_extraction/rfe-n3/rfe-n3-cccp1/weights/Adam"
  input: "save/RestoreV2:118"
  attr {
    key: "T"
    value {
      type: DT_FLOAT
    }
  }
  attr {
    key: "_class"
    value {
      list {
        s: "loc:@regnet/feature_extraction/rgb_feature_extraction/rfe-n3/rfe-n3-cccp1/weights"
      }
    }
  }
  attr {
    key: "use_locking"
    value {
      b: true
    }
  }
  attr {
    key: "validate_shape"
    value {
      b: true
    }
  }
}
node {
  name: "save/Assign_119"
  op: "Assign"
  input: "train_opt/regnet/feature_extraction/rgb_feature_extraction/rfe-n3/rfe-n3-cccp1/weights/Adam_1"
  input: "save/RestoreV2:119"
  attr {
    key: "T"
    value {
      type: DT_FLOAT
    }
  }
  attr {
    key: "_class"
    value {
      list {
        s: "loc:@regnet/feature_extraction/rgb_feature_extraction/rfe-n3/rfe-n3-cccp1/weights"
      }
    }
  }
  attr {
    key: "use_locking"
    value {
      b: true
    }
  }
  attr {
    key: "validate_shape"
    value {
      b: true
    }
  }
}
node {
  name: "save/Assign_120"
  op: "Assign"
  input: "train_opt/regnet/feature_extraction/rgb_feature_extraction/rfe-n3/rfe-n3-cccp2/biases/Adam"
  input: "save/RestoreV2:120"
  attr {
    key: "T"
    value {
      type: DT_FLOAT
    }
  }
  attr {
    key: "_class"
    value {
      list {
        s: "loc:@regnet/feature_extraction/rgb_feature_extraction/rfe-n3/rfe-n3-cccp2/biases"
      }
    }
  }
  attr {
    key: "use_locking"
    value {
      b: true
    }
  }
  attr {
    key: "validate_shape"
    value {
      b: true
    }
  }
}
node {
  name: "save/Assign_121"
  op: "Assign"
  input: "train_opt/regnet/feature_extraction/rgb_feature_extraction/rfe-n3/rfe-n3-cccp2/biases/Adam_1"
  input: "save/RestoreV2:121"
  attr {
    key: "T"
    value {
      type: DT_FLOAT
    }
  }
  attr {
    key: "_class"
    value {
      list {
        s: "loc:@regnet/feature_extraction/rgb_feature_extraction/rfe-n3/rfe-n3-cccp2/biases"
      }
    }
  }
  attr {
    key: "use_locking"
    value {
      b: true
    }
  }
  attr {
    key: "validate_shape"
    value {
      b: true
    }
  }
}
node {
  name: "save/Assign_122"
  op: "Assign"
  input: "train_opt/regnet/feature_extraction/rgb_feature_extraction/rfe-n3/rfe-n3-cccp2/weights/Adam"
  input: "save/RestoreV2:122"
  attr {
    key: "T"
    value {
      type: DT_FLOAT
    }
  }
  attr {
    key: "_class"
    value {
      list {
        s: "loc:@regnet/feature_extraction/rgb_feature_extraction/rfe-n3/rfe-n3-cccp2/weights"
      }
    }
  }
  attr {
    key: "use_locking"
    value {
      b: true
    }
  }
  attr {
    key: "validate_shape"
    value {
      b: true
    }
  }
}
node {
  name: "save/Assign_123"
  op: "Assign"
  input: "train_opt/regnet/feature_extraction/rgb_feature_extraction/rfe-n3/rfe-n3-cccp2/weights/Adam_1"
  input: "save/RestoreV2:123"
  attr {
    key: "T"
    value {
      type: DT_FLOAT
    }
  }
  attr {
    key: "_class"
    value {
      list {
        s: "loc:@regnet/feature_extraction/rgb_feature_extraction/rfe-n3/rfe-n3-cccp2/weights"
      }
    }
  }
  attr {
    key: "use_locking"
    value {
      b: true
    }
  }
  attr {
    key: "validate_shape"
    value {
      b: true
    }
  }
}
node {
  name: "save/Assign_124"
  op: "Assign"
  input: "train_opt/regnet/feature_extraction/rgb_feature_extraction/rfe-n3/rfe-n3-conv1/biases/Adam"
  input: "save/RestoreV2:124"
  attr {
    key: "T"
    value {
      type: DT_FLOAT
    }
  }
  attr {
    key: "_class"
    value {
      list {
        s: "loc:@regnet/feature_extraction/rgb_feature_extraction/rfe-n3/rfe-n3-conv1/biases"
      }
    }
  }
  attr {
    key: "use_locking"
    value {
      b: true
    }
  }
  attr {
    key: "validate_shape"
    value {
      b: true
    }
  }
}
node {
  name: "save/Assign_125"
  op: "Assign"
  input: "train_opt/regnet/feature_extraction/rgb_feature_extraction/rfe-n3/rfe-n3-conv1/biases/Adam_1"
  input: "save/RestoreV2:125"
  attr {
    key: "T"
    value {
      type: DT_FLOAT
    }
  }
  attr {
    key: "_class"
    value {
      list {
        s: "loc:@regnet/feature_extraction/rgb_feature_extraction/rfe-n3/rfe-n3-conv1/biases"
      }
    }
  }
  attr {
    key: "use_locking"
    value {
      b: true
    }
  }
  attr {
    key: "validate_shape"
    value {
      b: true
    }
  }
}
node {
  name: "save/Assign_126"
  op: "Assign"
  input: "train_opt/regnet/feature_extraction/rgb_feature_extraction/rfe-n3/rfe-n3-conv1/weights/Adam"
  input: "save/RestoreV2:126"
  attr {
    key: "T"
    value {
      type: DT_FLOAT
    }
  }
  attr {
    key: "_class"
    value {
      list {
        s: "loc:@regnet/feature_extraction/rgb_feature_extraction/rfe-n3/rfe-n3-conv1/weights"
      }
    }
  }
  attr {
    key: "use_locking"
    value {
      b: true
    }
  }
  attr {
    key: "validate_shape"
    value {
      b: true
    }
  }
}
node {
  name: "save/Assign_127"
  op: "Assign"
  input: "train_opt/regnet/feature_extraction/rgb_feature_extraction/rfe-n3/rfe-n3-conv1/weights/Adam_1"
  input: "save/RestoreV2:127"
  attr {
    key: "T"
    value {
      type: DT_FLOAT
    }
  }
  attr {
    key: "_class"
    value {
      list {
        s: "loc:@regnet/feature_extraction/rgb_feature_extraction/rfe-n3/rfe-n3-conv1/weights"
      }
    }
  }
  attr {
    key: "use_locking"
    value {
      b: true
    }
  }
  attr {
    key: "validate_shape"
    value {
      b: true
    }
  }
}
node {
  name: "save/Assign_128"
  op: "Assign"
  input: "train_opt/regnet/feature_matching/fm-n1/fm-n1-cccp1/biases/Adam"
  input: "save/RestoreV2:128"
  attr {
    key: "T"
    value {
      type: DT_FLOAT
    }
  }
  attr {
    key: "_class"
    value {
      list {
        s: "loc:@regnet/feature_matching/fm-n1/fm-n1-cccp1/biases"
      }
    }
  }
  attr {
    key: "use_locking"
    value {
      b: true
    }
  }
  attr {
    key: "validate_shape"
    value {
      b: true
    }
  }
}
node {
  name: "save/Assign_129"
  op: "Assign"
  input: "train_opt/regnet/feature_matching/fm-n1/fm-n1-cccp1/biases/Adam_1"
  input: "save/RestoreV2:129"
  attr {
    key: "T"
    value {
      type: DT_FLOAT
    }
  }
  attr {
    key: "_class"
    value {
      list {
        s: "loc:@regnet/feature_matching/fm-n1/fm-n1-cccp1/biases"
      }
    }
  }
  attr {
    key: "use_locking"
    value {
      b: true
    }
  }
  attr {
    key: "validate_shape"
    value {
      b: true
    }
  }
}
node {
  name: "save/Assign_130"
  op: "Assign"
  input: "train_opt/regnet/feature_matching/fm-n1/fm-n1-cccp1/weights/Adam"
  input: "save/RestoreV2:130"
  attr {
    key: "T"
    value {
      type: DT_FLOAT
    }
  }
  attr {
    key: "_class"
    value {
      list {
        s: "loc:@regnet/feature_matching/fm-n1/fm-n1-cccp1/weights"
      }
    }
  }
  attr {
    key: "use_locking"
    value {
      b: true
    }
  }
  attr {
    key: "validate_shape"
    value {
      b: true
    }
  }
}
node {
  name: "save/Assign_131"
  op: "Assign"
  input: "train_opt/regnet/feature_matching/fm-n1/fm-n1-cccp1/weights/Adam_1"
  input: "save/RestoreV2:131"
  attr {
    key: "T"
    value {
      type: DT_FLOAT
    }
  }
  attr {
    key: "_class"
    value {
      list {
        s: "loc:@regnet/feature_matching/fm-n1/fm-n1-cccp1/weights"
      }
    }
  }
  attr {
    key: "use_locking"
    value {
      b: true
    }
  }
  attr {
    key: "validate_shape"
    value {
      b: true
    }
  }
}
node {
  name: "save/Assign_132"
  op: "Assign"
  input: "train_opt/regnet/feature_matching/fm-n1/fm-n1-cccp2/biases/Adam"
  input: "save/RestoreV2:132"
  attr {
    key: "T"
    value {
      type: DT_FLOAT
    }
  }
  attr {
    key: "_class"
    value {
      list {
        s: "loc:@regnet/feature_matching/fm-n1/fm-n1-cccp2/biases"
      }
    }
  }
  attr {
    key: "use_locking"
    value {
      b: true
    }
  }
  attr {
    key: "validate_shape"
    value {
      b: true
    }
  }
}
node {
  name: "save/Assign_133"
  op: "Assign"
  input: "train_opt/regnet/feature_matching/fm-n1/fm-n1-cccp2/biases/Adam_1"
  input: "save/RestoreV2:133"
  attr {
    key: "T"
    value {
      type: DT_FLOAT
    }
  }
  attr {
    key: "_class"
    value {
      list {
        s: "loc:@regnet/feature_matching/fm-n1/fm-n1-cccp2/biases"
      }
    }
  }
  attr {
    key: "use_locking"
    value {
      b: true
    }
  }
  attr {
    key: "validate_shape"
    value {
      b: true
    }
  }
}
node {
  name: "save/Assign_134"
  op: "Assign"
  input: "train_opt/regnet/feature_matching/fm-n1/fm-n1-cccp2/weights/Adam"
  input: "save/RestoreV2:134"
  attr {
    key: "T"
    value {
      type: DT_FLOAT
    }
  }
  attr {
    key: "_class"
    value {
      list {
        s: "loc:@regnet/feature_matching/fm-n1/fm-n1-cccp2/weights"
      }
    }
  }
  attr {
    key: "use_locking"
    value {
      b: true
    }
  }
  attr {
    key: "validate_shape"
    value {
      b: true
    }
  }
}
node {
  name: "save/Assign_135"
  op: "Assign"
  input: "train_opt/regnet/feature_matching/fm-n1/fm-n1-cccp2/weights/Adam_1"
  input: "save/RestoreV2:135"
  attr {
    key: "T"
    value {
      type: DT_FLOAT
    }
  }
  attr {
    key: "_class"
    value {
      list {
        s: "loc:@regnet/feature_matching/fm-n1/fm-n1-cccp2/weights"
      }
    }
  }
  attr {
    key: "use_locking"
    value {
      b: true
    }
  }
  attr {
    key: "validate_shape"
    value {
      b: true
    }
  }
}
node {
  name: "save/Assign_136"
  op: "Assign"
  input: "train_opt/regnet/feature_matching/fm-n1/fm-n1-conv1/biases/Adam"
  input: "save/RestoreV2:136"
  attr {
    key: "T"
    value {
      type: DT_FLOAT
    }
  }
  attr {
    key: "_class"
    value {
      list {
        s: "loc:@regnet/feature_matching/fm-n1/fm-n1-conv1/biases"
      }
    }
  }
  attr {
    key: "use_locking"
    value {
      b: true
    }
  }
  attr {
    key: "validate_shape"
    value {
      b: true
    }
  }
}
node {
  name: "save/Assign_137"
  op: "Assign"
  input: "train_opt/regnet/feature_matching/fm-n1/fm-n1-conv1/biases/Adam_1"
  input: "save/RestoreV2:137"
  attr {
    key: "T"
    value {
      type: DT_FLOAT
    }
  }
  attr {
    key: "_class"
    value {
      list {
        s: "loc:@regnet/feature_matching/fm-n1/fm-n1-conv1/biases"
      }
    }
  }
  attr {
    key: "use_locking"
    value {
      b: true
    }
  }
  attr {
    key: "validate_shape"
    value {
      b: true
    }
  }
}
node {
  name: "save/Assign_138"
  op: "Assign"
  input: "train_opt/regnet/feature_matching/fm-n1/fm-n1-conv1/weights/Adam"
  input: "save/RestoreV2:138"
  attr {
    key: "T"
    value {
      type: DT_FLOAT
    }
  }
  attr {
    key: "_class"
    value {
      list {
        s: "loc:@regnet/feature_matching/fm-n1/fm-n1-conv1/weights"
      }
    }
  }
  attr {
    key: "use_locking"
    value {
      b: true
    }
  }
  attr {
    key: "validate_shape"
    value {
      b: true
    }
  }
}
node {
  name: "save/Assign_139"
  op: "Assign"
  input: "train_opt/regnet/feature_matching/fm-n1/fm-n1-conv1/weights/Adam_1"
  input: "save/RestoreV2:139"
  attr {
    key: "T"
    value {
      type: DT_FLOAT
    }
  }
  attr {
    key: "_class"
    value {
      list {
        s: "loc:@regnet/feature_matching/fm-n1/fm-n1-conv1/weights"
      }
    }
  }
  attr {
    key: "use_locking"
    value {
      b: true
    }
  }
  attr {
    key: "validate_shape"
    value {
      b: true
    }
  }
}
node {
  name: "save/Assign_140"
  op: "Assign"
  input: "train_opt/regnet/feature_matching/fm-n2/fm-n2-cccp1/biases/Adam"
  input: "save/RestoreV2:140"
  attr {
    key: "T"
    value {
      type: DT_FLOAT
    }
  }
  attr {
    key: "_class"
    value {
      list {
        s: "loc:@regnet/feature_matching/fm-n2/fm-n2-cccp1/biases"
      }
    }
  }
  attr {
    key: "use_locking"
    value {
      b: true
    }
  }
  attr {
    key: "validate_shape"
    value {
      b: true
    }
  }
}
node {
  name: "save/Assign_141"
  op: "Assign"
  input: "train_opt/regnet/feature_matching/fm-n2/fm-n2-cccp1/biases/Adam_1"
  input: "save/RestoreV2:141"
  attr {
    key: "T"
    value {
      type: DT_FLOAT
    }
  }
  attr {
    key: "_class"
    value {
      list {
        s: "loc:@regnet/feature_matching/fm-n2/fm-n2-cccp1/biases"
      }
    }
  }
  attr {
    key: "use_locking"
    value {
      b: true
    }
  }
  attr {
    key: "validate_shape"
    value {
      b: true
    }
  }
}
node {
  name: "save/Assign_142"
  op: "Assign"
  input: "train_opt/regnet/feature_matching/fm-n2/fm-n2-cccp1/weights/Adam"
  input: "save/RestoreV2:142"
  attr {
    key: "T"
    value {
      type: DT_FLOAT
    }
  }
  attr {
    key: "_class"
    value {
      list {
        s: "loc:@regnet/feature_matching/fm-n2/fm-n2-cccp1/weights"
      }
    }
  }
  attr {
    key: "use_locking"
    value {
      b: true
    }
  }
  attr {
    key: "validate_shape"
    value {
      b: true
    }
  }
}
node {
  name: "save/Assign_143"
  op: "Assign"
  input: "train_opt/regnet/feature_matching/fm-n2/fm-n2-cccp1/weights/Adam_1"
  input: "save/RestoreV2:143"
  attr {
    key: "T"
    value {
      type: DT_FLOAT
    }
  }
  attr {
    key: "_class"
    value {
      list {
        s: "loc:@regnet/feature_matching/fm-n2/fm-n2-cccp1/weights"
      }
    }
  }
  attr {
    key: "use_locking"
    value {
      b: true
    }
  }
  attr {
    key: "validate_shape"
    value {
      b: true
    }
  }
}
node {
  name: "save/Assign_144"
  op: "Assign"
  input: "train_opt/regnet/feature_matching/fm-n2/fm-n2-cccp2/biases/Adam"
  input: "save/RestoreV2:144"
  attr {
    key: "T"
    value {
      type: DT_FLOAT
    }
  }
  attr {
    key: "_class"
    value {
      list {
        s: "loc:@regnet/feature_matching/fm-n2/fm-n2-cccp2/biases"
      }
    }
  }
  attr {
    key: "use_locking"
    value {
      b: true
    }
  }
  attr {
    key: "validate_shape"
    value {
      b: true
    }
  }
}
node {
  name: "save/Assign_145"
  op: "Assign"
  input: "train_opt/regnet/feature_matching/fm-n2/fm-n2-cccp2/biases/Adam_1"
  input: "save/RestoreV2:145"
  attr {
    key: "T"
    value {
      type: DT_FLOAT
    }
  }
  attr {
    key: "_class"
    value {
      list {
        s: "loc:@regnet/feature_matching/fm-n2/fm-n2-cccp2/biases"
      }
    }
  }
  attr {
    key: "use_locking"
    value {
      b: true
    }
  }
  attr {
    key: "validate_shape"
    value {
      b: true
    }
  }
}
node {
  name: "save/Assign_146"
  op: "Assign"
  input: "train_opt/regnet/feature_matching/fm-n2/fm-n2-cccp2/weights/Adam"
  input: "save/RestoreV2:146"
  attr {
    key: "T"
    value {
      type: DT_FLOAT
    }
  }
  attr {
    key: "_class"
    value {
      list {
        s: "loc:@regnet/feature_matching/fm-n2/fm-n2-cccp2/weights"
      }
    }
  }
  attr {
    key: "use_locking"
    value {
      b: true
    }
  }
  attr {
    key: "validate_shape"
    value {
      b: true
    }
  }
}
node {
  name: "save/Assign_147"
  op: "Assign"
  input: "train_opt/regnet/feature_matching/fm-n2/fm-n2-cccp2/weights/Adam_1"
  input: "save/RestoreV2:147"
  attr {
    key: "T"
    value {
      type: DT_FLOAT
    }
  }
  attr {
    key: "_class"
    value {
      list {
        s: "loc:@regnet/feature_matching/fm-n2/fm-n2-cccp2/weights"
      }
    }
  }
  attr {
    key: "use_locking"
    value {
      b: true
    }
  }
  attr {
    key: "validate_shape"
    value {
      b: true
    }
  }
}
node {
  name: "save/Assign_148"
  op: "Assign"
  input: "train_opt/regnet/feature_matching/fm-n2/fm-n2-conv1/biases/Adam"
  input: "save/RestoreV2:148"
  attr {
    key: "T"
    value {
      type: DT_FLOAT
    }
  }
  attr {
    key: "_class"
    value {
      list {
        s: "loc:@regnet/feature_matching/fm-n2/fm-n2-conv1/biases"
      }
    }
  }
  attr {
    key: "use_locking"
    value {
      b: true
    }
  }
  attr {
    key: "validate_shape"
    value {
      b: true
    }
  }
}
node {
  name: "save/Assign_149"
  op: "Assign"
  input: "train_opt/regnet/feature_matching/fm-n2/fm-n2-conv1/biases/Adam_1"
  input: "save/RestoreV2:149"
  attr {
    key: "T"
    value {
      type: DT_FLOAT
    }
  }
  attr {
    key: "_class"
    value {
      list {
        s: "loc:@regnet/feature_matching/fm-n2/fm-n2-conv1/biases"
      }
    }
  }
  attr {
    key: "use_locking"
    value {
      b: true
    }
  }
  attr {
    key: "validate_shape"
    value {
      b: true
    }
  }
}
node {
  name: "save/Assign_150"
  op: "Assign"
  input: "train_opt/regnet/feature_matching/fm-n2/fm-n2-conv1/weights/Adam"
  input: "save/RestoreV2:150"
  attr {
    key: "T"
    value {
      type: DT_FLOAT
    }
  }
  attr {
    key: "_class"
    value {
      list {
        s: "loc:@regnet/feature_matching/fm-n2/fm-n2-conv1/weights"
      }
    }
  }
  attr {
    key: "use_locking"
    value {
      b: true
    }
  }
  attr {
    key: "validate_shape"
    value {
      b: true
    }
  }
}
node {
  name: "save/Assign_151"
  op: "Assign"
  input: "train_opt/regnet/feature_matching/fm-n2/fm-n2-conv1/weights/Adam_1"
  input: "save/RestoreV2:151"
  attr {
    key: "T"
    value {
      type: DT_FLOAT
    }
  }
  attr {
    key: "_class"
    value {
      list {
        s: "loc:@regnet/feature_matching/fm-n2/fm-n2-conv1/weights"
      }
    }
  }
  attr {
    key: "use_locking"
    value {
      b: true
    }
  }
  attr {
    key: "validate_shape"
    value {
      b: true
    }
  }
}
node {
  name: "save/Assign_152"
  op: "Assign"
  input: "train_opt/regnet/global_regression/gr-fc1/biases/Adam"
  input: "save/RestoreV2:152"
  attr {
    key: "T"
    value {
      type: DT_FLOAT
    }
  }
  attr {
    key: "_class"
    value {
      list {
        s: "loc:@regnet/global_regression/gr-fc1/biases"
      }
    }
  }
  attr {
    key: "use_locking"
    value {
      b: true
    }
  }
  attr {
    key: "validate_shape"
    value {
      b: true
    }
  }
}
node {
  name: "save/Assign_153"
  op: "Assign"
  input: "train_opt/regnet/global_regression/gr-fc1/biases/Adam_1"
  input: "save/RestoreV2:153"
  attr {
    key: "T"
    value {
      type: DT_FLOAT
    }
  }
  attr {
    key: "_class"
    value {
      list {
        s: "loc:@regnet/global_regression/gr-fc1/biases"
      }
    }
  }
  attr {
    key: "use_locking"
    value {
      b: true
    }
  }
  attr {
    key: "validate_shape"
    value {
      b: true
    }
  }
}
node {
  name: "save/Assign_154"
  op: "Assign"
  input: "train_opt/regnet/global_regression/gr-fc1/weights/Adam"
  input: "save/RestoreV2:154"
  attr {
    key: "T"
    value {
      type: DT_FLOAT
    }
  }
  attr {
    key: "_class"
    value {
      list {
        s: "loc:@regnet/global_regression/gr-fc1/weights"
      }
    }
  }
  attr {
    key: "use_locking"
    value {
      b: true
    }
  }
  attr {
    key: "validate_shape"
    value {
      b: true
    }
  }
}
node {
  name: "save/Assign_155"
  op: "Assign"
  input: "train_opt/regnet/global_regression/gr-fc1/weights/Adam_1"
  input: "save/RestoreV2:155"
  attr {
    key: "T"
    value {
      type: DT_FLOAT
    }
  }
  attr {
    key: "_class"
    value {
      list {
        s: "loc:@regnet/global_regression/gr-fc1/weights"
      }
    }
  }
  attr {
    key: "use_locking"
    value {
      b: true
    }
  }
  attr {
    key: "validate_shape"
    value {
      b: true
    }
  }
}
node {
  name: "save/Assign_156"
  op: "Assign"
  input: "train_opt/regnet/global_regression/gr-fc2/biases/Adam"
  input: "save/RestoreV2:156"
  attr {
    key: "T"
    value {
      type: DT_FLOAT
    }
  }
  attr {
    key: "_class"
    value {
      list {
        s: "loc:@regnet/global_regression/gr-fc2/biases"
      }
    }
  }
  attr {
    key: "use_locking"
    value {
      b: true
    }
  }
  attr {
    key: "validate_shape"
    value {
      b: true
    }
  }
}
node {
  name: "save/Assign_157"
  op: "Assign"
  input: "train_opt/regnet/global_regression/gr-fc2/biases/Adam_1"
  input: "save/RestoreV2:157"
  attr {
    key: "T"
    value {
      type: DT_FLOAT
    }
  }
  attr {
    key: "_class"
    value {
      list {
        s: "loc:@regnet/global_regression/gr-fc2/biases"
      }
    }
  }
  attr {
    key: "use_locking"
    value {
      b: true
    }
  }
  attr {
    key: "validate_shape"
    value {
      b: true
    }
  }
}
node {
  name: "save/Assign_158"
  op: "Assign"
  input: "train_opt/regnet/global_regression/gr-fc2/weights/Adam"
  input: "save/RestoreV2:158"
  attr {
    key: "T"
    value {
      type: DT_FLOAT
    }
  }
  attr {
    key: "_class"
    value {
      list {
        s: "loc:@regnet/global_regression/gr-fc2/weights"
      }
    }
  }
  attr {
    key: "use_locking"
    value {
      b: true
    }
  }
  attr {
    key: "validate_shape"
    value {
      b: true
    }
  }
}
node {
  name: "save/Assign_159"
  op: "Assign"
  input: "train_opt/regnet/global_regression/gr-fc2/weights/Adam_1"
  input: "save/RestoreV2:159"
  attr {
    key: "T"
    value {
      type: DT_FLOAT
    }
  }
  attr {
    key: "_class"
    value {
      list {
        s: "loc:@regnet/global_regression/gr-fc2/weights"
      }
    }
  }
  attr {
    key: "use_locking"
    value {
      b: true
    }
  }
  attr {
    key: "validate_shape"
    value {
      b: true
    }
  }
}
node {
  name: "save/Assign_160"
  op: "Assign"
  input: "train_opt/regnet/global_regression/gr-fc3/biases/Adam"
  input: "save/RestoreV2:160"
  attr {
    key: "T"
    value {
      type: DT_FLOAT
    }
  }
  attr {
    key: "_class"
    value {
      list {
        s: "loc:@regnet/global_regression/gr-fc3/biases"
      }
    }
  }
  attr {
    key: "use_locking"
    value {
      b: true
    }
  }
  attr {
    key: "validate_shape"
    value {
      b: true
    }
  }
}
node {
  name: "save/Assign_161"
  op: "Assign"
  input: "train_opt/regnet/global_regression/gr-fc3/biases/Adam_1"
  input: "save/RestoreV2:161"
  attr {
    key: "T"
    value {
      type: DT_FLOAT
    }
  }
  attr {
    key: "_class"
    value {
      list {
        s: "loc:@regnet/global_regression/gr-fc3/biases"
      }
    }
  }
  attr {
    key: "use_locking"
    value {
      b: true
    }
  }
  attr {
    key: "validate_shape"
    value {
      b: true
    }
  }
}
node {
  name: "save/Assign_162"
  op: "Assign"
  input: "train_opt/regnet/global_regression/gr-fc3/weights/Adam"
  input: "save/RestoreV2:162"
  attr {
    key: "T"
    value {
      type: DT_FLOAT
    }
  }
  attr {
    key: "_class"
    value {
      list {
        s: "loc:@regnet/global_regression/gr-fc3/weights"
      }
    }
  }
  attr {
    key: "use_locking"
    value {
      b: true
    }
  }
  attr {
    key: "validate_shape"
    value {
      b: true
    }
  }
}
node {
  name: "save/Assign_163"
  op: "Assign"
  input: "train_opt/regnet/global_regression/gr-fc3/weights/Adam_1"
  input: "save/RestoreV2:163"
  attr {
    key: "T"
    value {
      type: DT_FLOAT
    }
  }
  attr {
    key: "_class"
    value {
      list {
        s: "loc:@regnet/global_regression/gr-fc3/weights"
      }
    }
  }
  attr {
    key: "use_locking"
    value {
      b: true
    }
  }
  attr {
    key: "validate_shape"
    value {
      b: true
    }
  }
}
node {
  name: "save/restore_all"
  op: "NoOp"
  input: "^save/Assign"
  input: "^save/Assign_1"
  input: "^save/Assign_10"
  input: "^save/Assign_100"
  input: "^save/Assign_101"
  input: "^save/Assign_102"
  input: "^save/Assign_103"
  input: "^save/Assign_104"
  input: "^save/Assign_105"
  input: "^save/Assign_106"
  input: "^save/Assign_107"
  input: "^save/Assign_108"
  input: "^save/Assign_109"
  input: "^save/Assign_11"
  input: "^save/Assign_110"
  input: "^save/Assign_111"
  input: "^save/Assign_112"
  input: "^save/Assign_113"
  input: "^save/Assign_114"
  input: "^save/Assign_115"
  input: "^save/Assign_116"
  input: "^save/Assign_117"
  input: "^save/Assign_118"
  input: "^save/Assign_119"
  input: "^save/Assign_12"
  input: "^save/Assign_120"
  input: "^save/Assign_121"
  input: "^save/Assign_122"
  input: "^save/Assign_123"
  input: "^save/Assign_124"
  input: "^save/Assign_125"
  input: "^save/Assign_126"
  input: "^save/Assign_127"
  input: "^save/Assign_128"
  input: "^save/Assign_129"
  input: "^save/Assign_13"
  input: "^save/Assign_130"
  input: "^save/Assign_131"
  input: "^save/Assign_132"
  input: "^save/Assign_133"
  input: "^save/Assign_134"
  input: "^save/Assign_135"
  input: "^save/Assign_136"
  input: "^save/Assign_137"
  input: "^save/Assign_138"
  input: "^save/Assign_139"
  input: "^save/Assign_14"
  input: "^save/Assign_140"
  input: "^save/Assign_141"
  input: "^save/Assign_142"
  input: "^save/Assign_143"
  input: "^save/Assign_144"
  input: "^save/Assign_145"
  input: "^save/Assign_146"
  input: "^save/Assign_147"
  input: "^save/Assign_148"
  input: "^save/Assign_149"
  input: "^save/Assign_15"
  input: "^save/Assign_150"
  input: "^save/Assign_151"
  input: "^save/Assign_152"
  input: "^save/Assign_153"
  input: "^save/Assign_154"
  input: "^save/Assign_155"
  input: "^save/Assign_156"
  input: "^save/Assign_157"
  input: "^save/Assign_158"
  input: "^save/Assign_159"
  input: "^save/Assign_16"
  input: "^save/Assign_160"
  input: "^save/Assign_161"
  input: "^save/Assign_162"
  input: "^save/Assign_163"
  input: "^save/Assign_17"
  input: "^save/Assign_18"
  input: "^save/Assign_19"
  input: "^save/Assign_2"
  input: "^save/Assign_20"
  input: "^save/Assign_21"
  input: "^save/Assign_22"
  input: "^save/Assign_23"
  input: "^save/Assign_24"
  input: "^save/Assign_25"
  input: "^save/Assign_26"
  input: "^save/Assign_27"
  input: "^save/Assign_28"
  input: "^save/Assign_29"
  input: "^save/Assign_3"
  input: "^save/Assign_30"
  input: "^save/Assign_31"
  input: "^save/Assign_32"
  input: "^save/Assign_33"
  input: "^save/Assign_34"
  input: "^save/Assign_35"
  input: "^save/Assign_36"
  input: "^save/Assign_37"
  input: "^save/Assign_38"
  input: "^save/Assign_39"
  input: "^save/Assign_4"
  input: "^save/Assign_40"
  input: "^save/Assign_41"
  input: "^save/Assign_42"
  input: "^save/Assign_43"
  input: "^save/Assign_44"
  input: "^save/Assign_45"
  input: "^save/Assign_46"
  input: "^save/Assign_47"
  input: "^save/Assign_48"
  input: "^save/Assign_49"
  input: "^save/Assign_5"
  input: "^save/Assign_50"
  input: "^save/Assign_51"
  input: "^save/Assign_52"
  input: "^save/Assign_53"
  input: "^save/Assign_54"
  input: "^save/Assign_55"
  input: "^save/Assign_56"
  input: "^save/Assign_57"
  input: "^save/Assign_58"
  input: "^save/Assign_59"
  input: "^save/Assign_6"
  input: "^save/Assign_60"
  input: "^save/Assign_61"
  input: "^save/Assign_62"
  input: "^save/Assign_63"
  input: "^save/Assign_64"
  input: "^save/Assign_65"
  input: "^save/Assign_66"
  input: "^save/Assign_67"
  input: "^save/Assign_68"
  input: "^save/Assign_69"
  input: "^save/Assign_7"
  input: "^save/Assign_70"
  input: "^save/Assign_71"
  input: "^save/Assign_72"
  input: "^save/Assign_73"
  input: "^save/Assign_74"
  input: "^save/Assign_75"
  input: "^save/Assign_76"
  input: "^save/Assign_77"
  input: "^save/Assign_78"
  input: "^save/Assign_79"
  input: "^save/Assign_8"
  input: "^save/Assign_80"
  input: "^save/Assign_81"
  input: "^save/Assign_82"
  input: "^save/Assign_83"
  input: "^save/Assign_84"
  input: "^save/Assign_85"
  input: "^save/Assign_86"
  input: "^save/Assign_87"
  input: "^save/Assign_88"
  input: "^save/Assign_89"
  input: "^save/Assign_9"
  input: "^save/Assign_90"
  input: "^save/Assign_91"
  input: "^save/Assign_92"
  input: "^save/Assign_93"
  input: "^save/Assign_94"
  input: "^save/Assign_95"
  input: "^save/Assign_96"
  input: "^save/Assign_97"
  input: "^save/Assign_98"
  input: "^save/Assign_99"
}
versions {
  producer: 26
}
